14_ieee/boundclip_14bus_with_residuals.onnx (onnx, 51581 bytes, 10 tensors)

layers.0.weight f4 [64, 22]
0.20330541 -0.19392271 -0.099439934 0.08141663 0.14152764 0.13090783 0.1255069 0.0859974
0.10163313 -0.048933018 0.13920577 0.1951161 0.020406445 0.1214496 -0.20732245 0.017849633
0.14218369 -0.085786745 0.05172901 -0.18238437 -0.18222864 0.14683215 0.045358777 -0.1276293
0.47455952 0.28562176 -0.27036467 -0.10441335 -0.071631595 -0.032587558 -0.13751864 -0.30421227
0.20152707 0.072621435 -0.06931349 -0.35702935 0.20918803 -0.18076113 -0.13793072 -0.005963235
-0.08147125 -0.04676076 -0.20404343 0.49524128 -0.22176936 0.16746022 0.59997594 0.25086996
-0.2858752 -0.28341687 -0.5760285 -0.4459857 0.0026372864 -0.21317406 -0.12938549 -0.07161097
-0.18648776 -0.5490964 0.07621602 -0.5720799 -0.20716348 -0.2955319 -0.27450928 0.25904542
0.04374516 -0.016912218 0.28908002 -0.29173648 -0.35677657 -0.16442853 -0.07635517 -0.16269948
-0.36884403 -0.14860584 -0.13225062 -0.1652388 -0.20392801 -0.07865059 -0.22130191 0.18996648
0.026596908 -0.13653953 -0.2887479 -0.030889452 -0.13779809 -0.39147243 -0.25750625 -0.42964256
-0.12381957 -0.086585954 0.18892233 -0.018092485 0.21063508 0.18231152 -0.19618224 0.07808703
-0.13752252 0.16584136 -0.0033922077 -0.017051263 0.13382141 0.1928987 -0.03929034 0.044564158
-0.079368256 0.14357753 -0.20706102 0.1531528 -0.11170537 -0.17186476 -0.12662895 -0.070843324
0.19430776 0.050259948 -0.071460314 -0.01200195 -0.24436024 0.007554092 -0.078217424 -0.12818564
-0.005659703 -0.23213272 -0.0542491 0.14741318 -0.03545656 -0.055193212 -0.140093 -0.05040052
-0.23871781 0.25766498 0.01929816 -0.13206741 0.106252395 -0.07438519 0.09559438 0.030298587
-0.18592775 -0.025011653 0.053541854 0.059621803 -0.13975231 0.09035395 -0.06444963 0.1620481
0.17115335 0.13242678 0.020027623 0.0018377699 -0.042821545 -0.045427117 -0.15576251 -0.17403951
0.08889866 0.16148663 0.099728204 0.2759384 0.22711317 0.36289924 0.35863954 0.29889333
0.29963544 0.32453796 0.0631971 0.22938463 0.29205167 0.08466505 0.20559178 -0.03788864
0.10946132 0.2476274 0.28868175 0.2161277 0.11261744 0.16198751 0.14489645 0.37284848
0.119619474 -0.15056275 -0.1626193 -0.027404625 0.16979645 -0.10914913 0.03360812 -0.12772506
0.18788306 -0.13434082 0.12186829 -0.117356636 0.15091231 -0.07595569 -0.056912918 -0.056270998
-0.047033224 -0.1103509 -0.069638334 0.14534158 0.18790133 0.044909656 0.1497281 -0.06494861
-0.111454844 0.0275498 0.12702154 0.10804157 -0.11794668 0.08378438 -0.025781998 0.05153825
-0.16233085 -0.04818386 0.20041375 -0.15953276 -0.16351211 -0.13447697 -0.14451082 0.05491869
0.09010366 -0.11082627 -0.044651106 0.1068382 0.22092876 0.23683867 -0.11562857 0.021441698
0.1646923 0.37899354 0.17337014 0.17559735 0.39138877 0.43991128 0.22910182 0.18063785
0.071600266 0.075928934 0.069817185 0.39088264 0.21904781 0.34372362 0.2198988 0.39472994
0.18524948 0.34612596 0.030741733 -0.005129332 0.10838748 0.12064914 -0.06152921 0.12948018
0.02609865 0.20816568 -0.053962227 0.18859924 -0.07991019 0.14341548 -0.09594557 -0.022580406
00000000: 4b2f 503e ad93 46be 2aa7 cbbd c3bd a63d
00000010: 9fec 103e b40c 063e e184 003e 681f b03d
00000020: 0825 d03d fd6d 48bd f58b 0e3e 84cc 473e
00000030: 6b2b a73c 91ba f83d 564c 54be 6539 923c
00000040: 9a98 113e f6b0 afbd cce1 533d f8c2 3abe
00000050: 259a 3abe 2b5b 163e 20ca 393d 41b1 02be
00000060: 77f9 f23e 043d 923e 3d6d 8abe abd6 d5bd
00000070: 96b3 92bd 887a 05bd b0d1 0cbe b6c1 9bbe
00000080: 1d5d 4e3e 8cba 943d 3bf4 8dbd 8dcc b6be
00000090: 6335 563e 7219 39be b63d 0dbe 3e67 c3bb
000000a0: 66da a6bd 3688 3fbd c3f0 50be 4490 fd3e
000000b0: 8217 63be b17a 2b3e 0698 193f 0772 803e
000000c0: 3c5e 92be 041c 91be 9b76 13bf 3d58 e4be
000000d0: 53d6 2c3b 4d4a 5abe a17d 04be c6a8 92bd
000000e0: a6f6 3ebe 9591 0cbf 2517 9c3d d473 12bf
000000f0: aa22 54be f54f 97be 7b8c 8cbe 9aa1 843e
00000100: 202e 333d 7e8b 8abc 4c02 943e 7c5e 95be
00000110: 6bab b6be f45f 28be 1960 9cbd b19a 26be
00000120: 20d9 bcbe 212c 18be b56c 07be 5c34 29be
00000130: 81d2 50be 8f13 a1bd f89c 62be 9386 423e
00000140: c2e1 d93c 05d1 0bbe c4d6 93be e00b fdbc
00000150: f11a 0dbe 136f c8be dcd7 83be 1cfa dbbe
00000160: 1d95 fdbd fa53 b1bd db74 413e b136 94bc
00000170: b9b0 573e dfaf 3a3e ffe3 48be 18ec 9f3d
00000180: b4d2 0cbe 51d2 293e cd4f 5ebb 17af 8bbc
00000190: 7b08 093e 3d87 453e e8ee 20bd e888 363d
000001a0: d38b a2bd fd05 133e ce07 54be 16d4 1c3e
000001b0: c9c5 e4bd 51fd 2fbe 05ab 01be 4e16 91bd
000001c0: 9df8 463e 60dd 4d3d c959 92bd d4a3 44bc
000001d0: 9239 7abe 5188 f73b 7530 a0bd 1943 03be
000001e0: 0875 b9bb 33b4 6dbe 4e34 5ebd 7bf3 163e
000001f0: e63a 11bd 4712 62bd 8a74 0fbe c770 4ebd
00000200: 7172 74be aaec 833e 2d17 9e3c ae3c 07be
00000210: db9a d93d 4357 98bd fcc6 c33d be34 f83c
00000220: d863 3ebe 3de5 ccbc b44e 5b3d fe35 743d
00000230: 3b1b 0fbe 7e0b b93d 2bfe 83bd f0ef 253e
00000240: d342 2f3e e39a 073e f810 a43c 53e1 f03a
00000250: a565 2fbd c911 3abd 3580 1fbe 6a37 32be
00000260: 8010 b63d c05c 253e 4d3e cc3d cc47 8d3e
00000270: 5b90 683e eecd b93e 9a9f b73e 8c08 993e
00000280: d169 993e d729 a63e 7b6d 813d cee3 6a3e
00000290: cc87 953e df64 ad3d a786 523e 1e31 1bbd
000002a0: 422d e03d 0a92 7d3e 18ce 933e 9450 5d3e
000002b0: f9a3 e63d 0ee0 253e bc5f 143e ffe5 be3e
000002c0: 0efb f43d 1f2d 1abe ac85 26be aa7f e0bc
000002d0: 1fdf 2d3e 9489 dfbd aba8 093d 5cca 02be
000002e0: 6b64 403e a490 09be 1596 f93d ad58 f0bd
000002f0: c288 1a3e a88e 9bbd 851d 69bd 6b7c 66bd
00000300: e9a5 40bd a7ff e1bd 8b9e 8ebd 6cd4 143e
00000310: 3569 403e 30f3 373d 5352 193e c703 85bd
00000320: 7042 e4bd 1eb0 e13c ef11 023e e644 dd3d
00000330: 078e f1bd 2597 ab3d c534 d3bc c619 533d
00000340: 0f3a 26be 705c 45bd 4339 4d3e 8e5c 23be
00000350: b86f 27be 55b4 09be a5fa 13be 6cf2 603d
00000360: 4588 b83d e2f8 e2bd 14e4 36bd fccd da3d
00000370: 263b 623e d685 723e acce ecbd 80a6 af3c
00000380: 19a5 283e 710b c23e f187 313e cbcf 333e
00000390: 1c64 c83e 0d3c e13e ab99 6a3e 21f9 383e
000003a0: 29a3 923d a180 9b3d 50fc 8e3d c521 c83e
000003b0: 124e 603e 8bfc af3e 272d 613e 0b1a ca3e
000003c0: 0ab2 3d3e 6c37 b13e 16d6 fb3c f513 a8bb
000003d0: 41fa dd3d e516 f73d 0e06 7cbd 7496 043e
000003e0: d6cc d53c 6229 553e 7f07 5dbd 2920 413e
000003f0: f4a7 a3bd 82db 123e 1c7f c4bd 8bfa b8bc

layers.0.bias f4 [64]
-0.014370222 0.002670525 -0.010805921 0.6163993 -0.18767552 0.090838246 -0.18808718 -0.48998687
0.03332011 0.008716807 -0.48738903 -0.18829621 -0.20978878 -0.6400923 -0.1931335 -0.29756537
-0.0065667313 0.55798733 0.002785295 0.57959753 -0.02582457 -0.19297546 0.112240046 -0.20209122
-0.08423616 0.2778151 -0.069910556 -0.48185182 -0.05999404 0.0074859997 -0.07308445 -0.12987448
-0.2094072 0.59954304 -0.17490764 0.024483839 -0.1903227 0.11129319 -0.034342982 0.039847728
-0.005607067 0.09622059 0.035259046 -0.105728865 0.08836169 0.020509748 -0.19556504 0.2215467
-0.19552654 0.043558747 -0.15725476 -0.12772085 0.37909064 0.008348752 -0.092360765 0.03143569
-0.37138703 0.35735565 -0.15501538 0.007400792 0.08564799 0.63385665 -0.17182983 0.007779176
00000000: 1471 6bbc fa03 2f3b 510b 31bc 58cc 1d3f
00000010: 032e 40be 6709 ba3d ed99 40be 8fdf fabe
00000020: ab7a 083d f0d0 0e3c 0e8b f9be b9d0 40be
00000030: dfd2 56be 17dd 23bf cac4 45be 7d5a 98be
00000040: bc2d d7bb 42d8 0e3f 7f89 363b 8160 143f
00000050: 0c8e d3bc 5c9b 45be 1cde e53d 00f1 4ebe
00000060: 0284 acbd c83d 8e3e 442d 8fbd 48b5 f6be
00000070: 4fbc 75bd 1e4d f53b 4dad 95bd d1fd 04be
00000080: d76e 56be a77b 193f fd1a 33be 5592 c83c
00000090: f4e3 42be afed e33d 3aab 0cbd 5f37 233d
000000a0: 7dbb b7bb 4d0f c53d ca6b 103d 6088 d8bd
000000b0: f9f6 b43d 0f04 a83c 3442 48be 23dd 623e
000000c0: 1c38 48be a86a 323d 6407 21be 41c9 02be
000000d0: 2b18 c23e 34c9 083c a427 bdbd b6c2 003d
000000e0: 7126 bebe 52f7 b63e 5abc 1ebe 5882 f23b
000000f0: 3768 af3d 6e44 223f 29f4 2fbe 75e8 fe3b

layers.2.weight f4 [32, 64]
-0.093976185 0.06183015 -0.014772077 -0.10590351 -0.09940702 0.018982645 0.06494039 0.0051611047
0.11617668 -0.011423707 0.01833552 -0.002154395 0.08698359 0.09265196 0.013058826 -0.12318779
0.07316026 0.016641313 -0.00077440485 -0.02830295 -0.091310784 -0.14498849 -0.011963691 -0.076865345
-0.026532888 0.0015630053 0.07115656 -0.08184586 0.115316674 -0.122136176 0.086425215 0.01779534
-0.114022434 0.08222844 -0.032388523 0.07693686 0.06869528 -0.021329846 0.09086348 0.0075787753
0.035111025 0.11560997 0.08230844 -0.12446801 0.0993747 -0.09880415 0.014790773 -0.14096498
-0.081308246 0.027342573 0.0755668 0.05865982 0.09345013 -0.12711434 0.09092422 0.026377736
-0.010336183 0.012173994 -0.0016871691 -0.105849296 6.312132e-05 -0.06395543 0.1180398 0.06283338
0.112527974 0.2664431 0.15057753 0.2554907 -0.0071222186 -0.020633789 0.04131235 -0.15782385
-0.022335812 0.07383469 -0.4805395 0.01070334 -0.04793647 0.8282612 0.031288996 -0.11432267
0.097652406 -0.90034956 -0.08976972 0.41800234 0.013316974 0.001641358 0.005382504 0.010064989
-0.105639756 -0.19204551 -0.0252747 -0.0528634 -0.095179066 -0.061686013 -0.11982705 -0.04839082
0.039273143 -0.16481997 0.07567912 -0.32207733 0.026534736 -0.06383644 -0.08172439 0.017269522
-0.026236564 -0.08710061 -0.060390044 -0.05376534 0.043768357 -0.011855471 -0.026888907 -0.02402189
0.025393292 -0.095019326 -0.010843292 0.04989393 -0.22871724 -0.11123872 -0.08577597 5.3877717e-05
-0.22896007 -0.056869313 -0.072176084 0.070464924 -0.052719682 -0.27880356 0.099449724 0.1151915
0.05679996 0.006797651 0.29728064 -0.6560187 -0.09906192 0.0412549 -0.058579072 -0.07978989
0.06332523 -0.013368875 -0.17869179 -0.019931197 0.11535832 0.07295587 -0.063008025 -0.2195106
-0.08679277 0.058658425 0.04760889 -0.18179026 0.081429124 -0.05310289 -0.13426167 0.028919384
-0.10234377 -0.015976995 0.0048003583 0.19481437 0.007001683 0.069624595 0.008591846 0.069949314
0.047832265 -0.10796926 0.04259838 0.14824311 0.07134315 -0.058369722 0.10268925 -0.024035662
0.116694525 0.021290153 -0.0042520813 0.033353016 0.066149324 -0.055514153 0.022338912 -0.18662332
0.07682368 0.059844494 -0.101698145 -0.122539565 0.057242617 -0.08915798 0.0818117 0.15890612
-0.18303114 0.18191724 -0.009720802 -0.081776306 -0.10585335 0.5286014 -0.051689148 0.110738546
0.059964795 0.06417908 -0.2039193 0.0332674 -0.013408899 -0.005909015 0.03455101 -0.20288566
-0.013691872 -0.028284192 -0.33545688 -0.105076164 0.1113513 -0.098313615 0.0027441978 0.012783916
0.044058114 -0.37559018 0.024992583 -0.30137107 0.115427 0.028971372 -0.17742555 -0.025389612
0.11423302 -0.06542607 -0.0005470542 -0.11172023 0.11850797 -0.051399037 0.07257868 0.10379329
0.11477141 -0.041278925 0.11131401 -0.20591815 -0.057295248 -0.014751241 -0.06776866 -0.11078519
-0.106917515 -0.00364469 -0.013218665 0.01752548 -0.018853713 -0.0057350947 0.08892165 -0.107495815
0.042715445 0.06847599 -0.031342864 -0.047776878 -0.18355882 -0.14242694 0.030849025 0.051299393
-0.0957484 -0.100484006 0.07954663 0.05642882 -0.045679763 -0.20141338 0.015683994 -0.33631885
00000000: 9676 c0bd 9d41 7d3d 9506 72bc f0e3 d8bd
00000010: e895 cbbd 7e81 9b3c 78ff 843d 7c1e a93b
00000020: 0aee ed3d 802a 3bbc 5f34 963c c030 0dbb
00000030: 7424 b23d 50c0 bd3d b0f4 553c e149 fcbd
00000040: 0cd5 953d 5d53 883c 6e01 4bba 97db e7bc
00000050: 2601 bbbd dd77 14be 5b03 44bc 946b 9dbd
00000060: 805b d9bc c1dd cc3a 88ba 913d cd9e a7bd
00000070: 262b ec3d 8822 fabd b4ff b03d 88c7 913c
00000080: 9884 e9bd 6267 a83d d4a9 04bd 1391 9d3d
00000090: 1cb0 8c3d eebb aebc a216 ba3d 6057 f83b
000000a0: 94d0 0f3d ecc4 ec3d 5491 a83d 16e9 febd
000000b0: f684 cb3d d559 cabd 0055 723c 2059 10be
000000c0: f084 a6bd 88fd df3c c4c2 9a3d 4845 703d
000000d0: c862 bf3d 432a 02be 7a36 ba3d 1f16 d83c
000000e0: 1859 29bc 6f75 473c 0024 ddba 84c7 d8bd
000000f0: 0060 8438 11fb 82bd dabe f13d caae 803d
00000100: 1175 e63d 3b6b 883e ff30 1a3e adcf 823e
00000110: 8061 e9bb 3108 a9bc 2437 293d 939c 21be
00000120: 98f9 b6bc a436 973d 4609 f6be 105d 2f3c
00000130: 0859 44bd ed08 543f e428 003d 0122 eabd
00000140: fcfd c73d 4f7d 66bf 30d9 b7bd 6704 d63e
00000150: 702f 5a3c d622 d73a b75f b03b a0e7 243c
00000160: a859 d8bd 94a7 44be e30c cfbc 4b87 58bd
00000170: 3eed c2bd 79aa 7cbd e267 f5bd 7435 46bd
00000180: e0dc 203d 91c6 28be a8fd 9a3d 52e7 a4be
00000190: 605f d93c aebc 82bd 1e5f a7bd d078 8d3c
000001a0: 10ee d6bc ce61 b2bd 8d5b 77bd 0c39 5cbd
000001b0: 7346 333d 733d 42bc 2046 dcbc 8ec9 c4bc
000001c0: 9805 d03c 7e99 c2bd 10a8 31bc 945d 4c3d
000001d0: da34 6abe 20d1 e3bd 50ab afbd c2fa 6138
000001e0: 8274 6abe ccef 68bd 0ed1 93bd ea4f 903d
000001f0: 98f0 57bd 57bf 8ebe 4cac cb3d 85e9 eb3d
00000200: 13a7 683d d4be de3b 2b35 983e d7f0 27bf
00000210: fae0 cabd e6fa 283d 9cf0 6fbd e268 a3bd
00000220: a8b0 813d 2009 5bbc fbfa 36be c046 a3bc
00000230: fc40 ec3d e369 953d 5a0a 81bd 63c7 60be
00000240: 68c0 b1bd d143 703d 8a01 433d 3a27 3abe
00000250: 50c4 a63d 6a82 59bd e47b 09be 58e8 ec3c
00000260: 9c99 d1bd 30e2 82bc 534c 9d3b 6b7d 473e
00000270: 606e e53b 5797 8e3d d0c4 0c3c 9641 8f3d
00000280: c4eb 433d fd1e ddbd a47b 2e3d 0bcd 173e
00000290: 5c1c 923d 1715 6fbd be4e d23d 70e6 c4bc
000002a0: 8afd ee3d b068 ae3c 0b55 8bbb 2c9d 083d
000002b0: 4c79 873d cf62 63bd 1800 b73c 2f1a 3fbe
000002c0: bc55 9d3d 801f 753d 1e47 d0bd 06f6 fabd
000002d0: 3c77 6a3d 7698 b6bd e48c a73d 49b8 223e
000002e0: 846c 3bbe 8348 3a3e 0044 1fbc 567a a7bd
000002f0: a4c9 d8bd 6c52 073f 00b8 53bd e4ca e23d
00000300: a59d 753d 5270 833d 39d0 50be 6643 083d
00000310: 00b1 5bbc 69a0 c1bb 5c85 0d3d 42c1 4fbe
00000320: e053 60bc 40b4 e7bc 01c1 abbe 2c32 d7bd
00000330: 260c e43d a658 c9bd 00d8 333b a173 513c
00000340: 4876 343d 5b4d c0be 3fbd cc3c 4f4d 9abe
00000350: fe64 ec3d 5f55 ed3c 0baf 35be e0fd cfbc
00000360: 00f3 e93d 1afe 85bd 3068 0fba 93cd e4bd
00000370: 4eb4 f23d cc87 52bd 22a4 943d 9491 d43d
00000380: 460d eb3d 1714 29bd 9af8 e33d 35dc 52be
00000390: 6cae 6abd 30af 71bc 4cca 8abd 58e3 e2bd
000003a0: 92f7 dabd c0db 6ebb 1993 58bc 9891 8f3c
000003b0: 1a73 9abc 76ed bbbb 8e1c b63d c426 dcbd
000003c0: 64f6 2e3d 243d 8c3d 6061 00bd b0b1 43bd
000003d0: d8f6 3bbe 5ed8 11be 18b7 fc3c 501f 523d
000003e0: bd17 c4bd 8fca cdbd 58e9 a23d e821 673d
000003f0: b41a 3bbd 4f3f 4ebe b87b 803c fc31 acbe

layers.2.bias f4 [32]
-0.02948075 0.21020764 0.03035041 0.16202457 0.2744646 0.080168165 0.010473598 -0.04295532
-0.06537519 -0.077415854 -0.08147743 -0.06574077 -0.014021366 0.018216662 -0.17463654 -0.115458935
-0.040398642 0.15408942 -0.18850505 -0.07772249 -0.04906339 -0.026465513 -0.040113762 -0.091947824
-0.01626269 -0.1015459 0.087161005 0.08879283 -0.16302148 0.039839722 -0.0037507594 0.05929213
00000000: 9d81 f1bc ac40 573e 6ca1 f83c c5e9 253e
00000010: a086 8c3e 352f a43d 7499 2b3c ebf1 2fbd
00000020: 6de3 85bd 348c 9ebd a4dd a6bd 19a3 86bd
00000030: dfb9 65bc 1c3b 953c ecd3 32be bc75 ecbd
00000040: 0c79 25bd 9ec9 1d3e 7807 41be f82c 9fbd
00000050: b1f6 48bd 34ce d8bc 544e 24bd 244f bcbd
00000060: 5539 85bc 4cf7 cfbd 7881 b23d 04d9 b53d
00000070: 1aef 26be fa2e 233d 4dcf 75bb 4edc 723d

layers.4.weight f4 [64, 32]
-0.08846016 -0.062946655 -0.10915149 -0.10227581 -0.015952004 -0.142511 -0.15268709 -0.04025182
-0.17103507 0.1501117 0.0073419176 -0.11475564 0.07439266 0.0751854 -0.15187022 -0.14309663
0.085517555 0.033745784 -0.1158307 -0.15779226 0.09523696 0.10948095 0.11467622 -0.16818374
-0.07406276 -0.11525957 0.029126862 -0.17026779 -0.02939083 0.12639143 0.042766564 0.0005854671
0.06969941 -0.18072264 -0.23487942 0.0054323063 -0.20592277 0.19438232 0.017150814 0.1586053
-0.1347982 -0.09553172 0.14068006 0.005108737 0.057059906 0.04869648 -0.075211436 -0.21176092
0.14202699 0.005823177 -0.07089647 -0.04283873 0.10931546 0.030343981 0.08091169 -0.035942122
-0.08869712 0.012301527 0.15198934 -0.03379937 0.044826716 -0.07088595 0.046769686 -0.17191827
-0.007051855 -0.15637131 -0.11625129 0.07034296 -0.05412706 -0.014085169 0.06093648 -0.1346294
0.057589896 -0.12671894 0.027993677 0.07172766 -0.16641137 -0.05663171 -0.2216483 0.031547073
0.10699453 -0.017218683 0.06537662 -0.019033369 0.10620105 0.17214935 0.0068102563 -0.07531743
0.07611382 -0.12094084 -0.1542625 -0.13681048 0.066500224 -0.16869804 -0.12821221 -0.15275778
0.113621764 -0.120082736 0.26426122 -0.10233258 -0.10091063 0.04266806 0.14645305 -0.16294204
0.12299973 0.036389276 0.068893775 -0.15276441 0.12664169 0.075686395 -0.09060013 0.10513359
0.053165592 -0.23811027 -0.14107102 -0.120302066 -0.004796592 -0.07969401 -0.14724699 -0.03640566
0.018664865 0.06475893 -0.057859626 0.092704505 -0.22792995 0.15835546 -0.14474918 -0.15473175
-0.04718386 -0.15746604 -0.06439735 -0.15878017 0.11455244 0.11876809 -0.023628661 0.06219994
0.1631922 0.09903032 0.15873772 0.1553956 -0.022533307 -0.011230133 -0.16330226 0.17235494
-0.033047512 -0.09897757 0.13143001 0.030598274 -0.17660488 -0.04446716 0.039306805 -0.061977107
0.13173217 -0.13696189 -0.055006377 -0.02916446 -0.13822512 0.058435403 0.004986141 -0.06223549
-0.06356635 0.08530562 0.0708586 -0.121852815 -0.011174684 -0.06768289 -0.041033614 0.05911384
0.05837377 -0.12058077 0.002348393 -0.17666188 -0.14791611 0.051738337 0.15423639 -0.12422662
-0.17328174 -0.27690184 0.088242926 -0.040652383 0.12949152 -0.04215992 -0.03255037 -0.07854791
-0.025727935 0.056743313 0.0005012516 0.04197444 -0.01537006 0.045676354 -0.30679098 0.026751447
0.12051005 -0.0089012515 -0.19282693 -0.15774469 0.13987546 0.1326328 0.0014279257 -0.0113438405
0.15682477 0.038466625 -0.061746627 0.16504562 0.0678292 0.011978977 -0.06310978 0.11266017
0.14367984 -0.06999732 0.029849356 -0.10101316 -0.12785336 -0.07396449 -0.13874032 0.15962036
-0.12485324 -0.08701651 -0.061972648 0.07250406 -0.02994269 0.008329514 0.016374873 0.10153802
0.15619025 0.1613839 -0.02376834 0.09175692 0.1958283 0.09084589 0.07085742 0.12820019
0.13909623 -0.5410616 0.10284687 -0.0015604253 -0.13485728 -0.10697574 -0.28084818 -0.37174264
-0.16769363 0.079786226 -0.05446753 -0.07182788 0.027114859 0.1134722 0.13671647 -0.006114021
-0.6286746 -0.1542309 -0.045532007 0.26765466 -0.03160035 0.13073814 -0.11284546 0.08172912
00000000: 9a2a b5bd 2dea 80bd d18a dfbd fb75 d1bd
00000010: c7ad 82bc 67ee 11be 015a 1cbe 18df 24bd
00000020: d123 2fbe e2b6 193e 7894 f03b 0105 ebbd
00000030: 2e5b 983d cefa 993d de83 1bbe ec87 12be
00000040: d423 af3d 0539 0a3d a538 edbd 4b94 21be
00000050: 980b c33d 8c37 e03d 5edb ea3d 5c38 2cbe
00000060: 37ae 97bd 360d ecbd 759b ee3c ae5a 2ebe
00000070: 0ac5 f0bc c16c 013e fe2b 2f3d 087a 193a
00000080: 90be 8e3d 5b0f 39be 3b84 70be 7d01 b23b
00000090: 6bdd 52be 290c 473e dd7f 8c3c 6e69 223e
000000a0: 8a08 0abe 22a6 c3bd 6f0e 103e 3167 a73b
000000b0: a6b7 693d f675 473d 7408 9abd dbd7 58be
000000c0: 866f 113e 59d0 be3b 2b32 91bd aa77 2fbd
000000d0: c9e0 df3d f193 f83c 07b5 a53d 0c38 13bd
000000e0: d6a6 b5bd 588c 493c 18a3 1b3e 3571 0abd
000000f0: 389c 373d a72c 91bd 9291 3f3d 580b 30be
00000100: 3f13 e7bb cd1f 20be 2815 eebd f80f 903d
00000110: 56b4 5dbd 7bc5 66bc 8898 793d 4adc 09be
00000120: 62e3 6b3d 9cc2 01be ff52 e53c f4e5 923d
00000130: be67 2abe a7f6 67bd c6f7 62be 8137 013d
00000140: f31f db3d 320e 8dbc 2de4 853d deeb 9bbc
00000150: f07f d93d eb47 303e 9228 df3b 0640 9abd
00000160: 90e1 9b3d d5af f7bd fdf6 1dbe 0c18 0cbe
00000170: 4531 883d 2ebf 2cbe 104a 03be 896c 1cbe
00000180: 87b2 e83d f0ed f5bd 3f4d 873e be93 d1bd
00000190: 3baa cebd b4c4 2e3d caf7 153e 47da 26be
000001a0: 48e7 fb3d ec0c 153d 2e18 8d3d 466e 1cbe
000001b0: 5cae 013e 7801 9b3d 908c b9bd 4850 d73d
000001c0: 2ac4 593d 2ed3 73be ec74 10be ee60 f6bd
000001d0: bb2c 9dbb 9d36 a3bd eac7 16be 1a1e 15bd
000001e0: 0fe7 983c 54a0 843d 37fe 6cbd dcdb bd3d
000001f0: 7866 69be ef27 223e 2139 14be 0072 1ebe
00000200: dd43 41bd c73e 21be c2e2 83bd 4597 22be
00000210: 789a ea3d af3c f33d e590 c1bc 5dc5 7e3d
00000220: db1b 273e 69d0 ca3d 248c 223e 0620 1f3e
00000230: c597 b8bc 97fe 37bc b538 27be d07d 303e
00000240: d45c 07bd c1b4 cabd 9795 063e 3ba9 fa3c
00000250: e9d7 34be 3223 36bd 2c00 213d b5db 7dbd
00000260: cce4 063e bd3f 0cbe 5e4e 61bd 4eea eebc
00000270: e38a 0dbe f659 6f3d c862 a33b a4ea 7ebd
00000280: 132f 82bd b7b4 ae3d 501e 913d f88d f9bd
00000290: 0616 37bc 549d 8abd dd12 28bd 5b21 723d
000002a0: 5619 6f3d 0df3 f6bd 7fe7 193b dae6 34be
000002b0: 5277 17be 94eb 533d 25f0 1d3e 876a febd
000002c0: c570 31be 14c6 8dbe b5b8 b43d 1d83 26bd
000002d0: 6d99 043e e1af 2cbd 8953 05bd badd a0bd
000002e0: 64c3 d2bc ad6b 683d 6d66 033a 64ed 2b3d
000002f0: b4d2 7bbc 2117 3b3d b513 9dbe da25 db3c
00000300: f9cd f63d 8ed6 11bc 6c74 45be d387 21be
00000310: 833b 0f3e e5d0 073e 3c29 bb3a 84db 39bc
00000320: ac96 203e 2e8f 1d3d 08ea 7cbd b801 293e
00000330: 09ea 8a3d 7943 443c b33f 81bd 60ba e63d
00000340: cf20 133e c15a 8fbd a386 f43c fddf cebd
00000350: feeb 02be b27a 97bd f111 0ebe 8573 233e
00000360: 0eb3 ffbd b635 b2bd 08d7 7dbd 027d 943d
00000370: 5f4a f5bc 8478 083c 9924 863c 2af3 cf3d
00000380: 56f0 1f3e d241 253e d2b5 c2bc 0deb bb3d
00000390: 3787 483e 690d ba3d b21d 913d e946 033e
000003a0: 3e6f 0e3e 0383 0abf 61a1 d23d 2f87 ccba
000003b0: 0718 0abe 1916 dbbd 55cb 8fbe 0d55 bebe
000003c0: e1b7 2bbe f666 a33d 5819 5fbd 7f1a 93bd
000003d0: fb1f de3c 1d64 e83d 67ff 0b3e 2058 c8bb
000003e0: d2f0 20bf b4ee 1dbe c57f 3abd 080a 893e
000003f0: 5e6f 01bd 38e0 053e 851b e7bd 9961 a73d

layers.4.bias f4 [64]
-0.0178056 0.24036828 0.015071264 0.21661264 -0.14141087 0.026944298 0.34686762 0.106512904
-0.12819776 0.27729893 -0.047994703 -0.09954005 -0.18009923 0.12096942 -0.0052506602 -0.082162604
-0.115859196 -0.15878117 -0.017062824 -0.13794644 -0.08320202 -0.014533484 -0.08114019 -0.049972612
0.04074019 0.0027210964 -0.08522383 0.18739177 0.029517144 -0.13121854 -0.032558147 0.12985964
0.007086546 0.27409127 -0.12113015 0.018722344 -0.013624243 -0.057714168 -0.041833483 -0.07828549
0.09937143 -0.16790347 0.29961637 -0.12175116 0.14262103 -0.025978474 -0.08424436 0.40295872
-0.052410197 -0.030528352 0.12539831 -0.3973613 0.2452183 -0.17275885 0.0461833 0.15557878
-0.08747062 0.06412351 -0.015810277 0.20568079 0.04131479 -0.07475072 -0.17777687 0.010208516
00000000: 0ddd 91bc 1a23 763e 76ed 763c b4cf 5d3e
00000010: 03ce 10be 4aba dc3c a298 b13e 7023 da3d
00000020: 4646 03be 20fa 8d3e 1896 44bd a7db cbbd
00000030: ef6b 38be d1be f73d bb0d acbb de44 a8bd
00000040: 9647 edbd 8897 22be 56c7 8bbc d541 0dbe
00000050: d265 aabd da1d 6ebc d42c a6bd 15b0 4cbd
00000060: 2fdf 263d 6c54 323b d589 aebd a1e3 3f3e
00000070: f0cd f13c 275e 06be b15b 05bd edf9 043e
00000080: 4236 e83b b155 8c3e 1613 f8bd 9a5f 993c
00000090: 3838 5fbc b165 6cbd 9659 2bbd 2554 a0bd
000000a0: 4083 cb3d e3ee 2bbe 5167 993e ac58 f9bd
000000b0: 3f0b 123e cfd0 d4bc 4f88 acbd 9b50 ce3e
000000c0: 13ac 56bd 9816 fabc 6a68 003e f172 cbbe
000000d0: 821a 7b3e b2e7 30be b32a 3d3d 0b50 1f3e
000000e0: cc23 b3bd 3053 833d 8e84 81bc fc9d 523e
000000f0: b239 293d e816 99bd 240b 36be 9f41 273c

layers.6.weight f4 [38, 64]
0.10358722 0.5642617 0.02238667 0.5947741 0.038531795 0.12417104 0.6225138 -0.04822221
0.1206891 -0.25399706 -0.0019847602 -0.061908633 0.009922475 0.033369273 -0.05292342 -0.094379425
0.012089536 -0.018473864 -0.016738398 0.061561972 0.012482757 -0.08563288 0.08794789 -0.064491436
0.19318038 0.02912365 0.41117987 0.76320726 0.016393363 -0.07124065 0.071550034 0.45873842
-0.040541682 0.6834215 -0.06986702 -0.009579408 -0.025746485 0.08048996 -0.10608109 -0.07730554
0.37731242 -0.11627125 0.6427982 0.07817721 0.34400654 1.0904552 -0.109033875 0.8182935
0.044201225 0.03424584 0.19994234 -1.7110013 0.750729 0.041342825 0.0035616064 -0.020569298
-0.031450868 -0.04206908 0.102327034 0.5821561 0.016490268 0.09019002 -0.03871319 -0.03673036
0.0659996 -0.0052433414 -0.06756756 -0.06491889 -0.124995604 0.03398919 -0.036001302 -0.026608022
0.022066705 0.09109465 -0.07129702 0.058794916 -0.015472951 0.007844046 0.104879685 -0.017501391
-0.12305938 0.06974222 0.05094997 -0.102263555 0.029107979 0.067691825 -0.11321926 -0.06784947
0.13118938 0.011470722 -0.022777218 -0.12406465 0.044221878 -0.034365773 0.033437345 0.12516625
-0.086102575 0.0971468 -0.08426155 0.078484 -0.12326819 -0.09159531 -0.016759153 -0.087776676
0.16569188 0.02989953 -0.018301364 -0.09866357 0.09395996 0.21578059 0.09192203 -0.007870038
0.055105507 0.05341457 0.055198725 1.57686 0.048299316 0.0050367564 -0.052523725 -0.005151472
-0.06228094 0.015309175 0.11570072 0.098953836 -0.0037177068 0.013800129 0.040763613 -0.033261675
0.078242525 0.05841999 0.045940705 -0.00619629 -0.047620013 0.07436965 0.077888966 -0.001721433
0.008334725 0.011991964 -0.004396215 -0.11890523 -0.005671992 -0.00084867614 0.0049120863 0.07050795
0.11178373 0.1246257 -0.06959751 -0.08570944 0.004894502 -0.10801782 0.06332959 -0.06684835
0.011408048 0.026354764 -0.048903972 0.0008167829 -0.029372439 0.010527238 -0.040384416 -0.002529348
0.0607551 0.035650056 0.03821885 0.047596283 -0.12215442 0.065733366 -0.039121166 -0.0903184
0.03460315 0.056091905 0.08308954 -0.08307481 -0.06563975 -0.005842547 -0.011869434 0.0068747285
0.08007571 0.079876065 0.011298822 -0.009698618 -0.01930767 0.103998005 0.060154032 -0.024276173
-0.10872898 -0.015347059 -0.068442605 -0.029705754 -0.027525082 -0.017588973 -0.04840237 -0.029370435
0.050895303 -0.020977104 -0.085407704 -0.0003535934 0.039868727 0.0022357472 0.07979403 -0.0012751124
0.012681166 -0.011475753 -0.068498254 0.03966999 0.007234619 -0.0011451225 0.010576431 0.0523586
-0.08945094 0.05255723 0.014184743 0.07976809 0.022758212 0.06892611 0.022610571 0.0009738505
-0.045661807 -0.01728815 0.05352366 0.058726843 -0.12385076 0.015856504 -0.06701177 0.051371112
0.071437396 -0.062094435 0.04036856 -0.0477414 -0.11384271 0.113459684 -0.061376795 0.11133273
0.049132515 -0.044844266 0.10408255 0.1185718 0.016068093 -0.057665884 0.12191464 0.0021090943
-0.013776302 0.08796773 -0.028747916 0.003065833 -0.06702827 -0.113679126 -0.020936983 -0.026421998
0.01724647 -0.015176143 -0.050521377 -0.007513066 0.028506314 0.04882069 0.09668685 0.09434557
00000000: 8925 d43d 7473 103f 4064 b73c 1e43 183f
00000010: 84d3 1d3d 634d fe3d 105d 1f3f a784 45bd
00000020: d92b f73d e70b 82be c012 02bb e893 7dbd
00000030: e091 223c 38ae 083d 3ac6 58bd 004a c1bd
00000040: 3013 463c 8056 97bc f71e 89bc 6828 7c3d
00000050: 7a84 4c3c 4b60 afbd 061e b43d 1614 84bd
00000060: 14d1 453e b994 ee3c 2b86 d23e 8d61 433f
00000070: 604b 863c 9ee6 91bd d388 923d c3df ea3e
00000080: 090f 26bd b6f4 2e3f 7116 8fbd f3f2 1cbc
00000090: 4bea d2bc ecd7 a43d 0b41 d9bd 5e52 9ebd
000000a0: 182f c13e 9f1f eebd 6c8e 243f 601b a03d
000000b0: a021 b03e 0994 8b3f 274d dfbd af7b 513f
000000c0: 580c 353d 5e45 0c3d afbd 4c3e 1702 dbbf
000000d0: c72f 403f 1857 293d d769 693b f280 a8bc
000000e0: a0d2 00bd a150 2cbd d690 d13d 2f08 153f
000000f0: 9916 873c 8cb5 b83d b991 1ebd 9372 16bd
00000100: cc2a 873d 56d0 abbb dc60 8abd 32f4 84bd
00000110: b2fd ffbd 4038 0b3d 1a76 13bd 11f9 d9bc
00000120: 3cc5 b43c d58f ba3d 2c04 92bd f0d2 703d
00000130: 4382 7dbc 5084 003c 29cb d63d 145f 8fbc
00000140: 8e06 fcbd 02d5 8e3d eab0 503d 8e6f d1bd
00000150: db73 ee3c 03a2 8a3d 80df e7bd aaf4 8abd
00000160: 8256 063e b2ef 3b3c 4a97 babc 9b15 febd
00000170: 0022 353d 20c3 0cbd 99f5 083d 952b 003e
00000180: 8c56 b0bd e7f4 c63d 5291 acbd 38bc a03d
00000190: 0874 fcbd 5296 bbbd 7e4a 89bc 42c4 b3bd
000001a0: 22ab 293e dcef f43c beec 95bc 2010 cabd
000001b0: 146e c03d 96f5 5c3e 9e41 bc3d 55f1 00bc
000001c0: 50b6 613d 3cc9 5a3d 0f18 623d 8cd6 c93f
000001d0: 81d5 453d 600b a53b 1e23 57bd aecd a8bb
000001e0: 4d1a 7fbd 55d3 7a3c 80f4 ec3d 4fa8 ca3d
000001f0: c5a4 73bb f019 623c bff7 263d 653d 08bd
00000200: 9e3d a03d cd49 6f3d 522c 3c3d 3f0a cbbb
00000210: 340d 43bd 1d4f 983d 4084 9f3d b5a1 e1ba
00000220: 5f8e 083c f179 443c 200e 90bb 9684 f3bd
00000230: 1edc b9bb b179 5eba 91f5 a03b 7966 903d
00000240: deee e43d c23b ff3d 2489 8ebd 6e88 afbd
00000250: 0f62 a03b 7238 ddbd f2b2 813d cae7 88bd
00000260: d2e8 3a3c f2e5 d73c 884f 48bd 5f1d 563a
00000270: 789e f0bc 707a 2c3c 216a 25bd 6bc3 25bb
00000280: 57da 783d cb05 123d 5e8b 1c3d 52f4 423d
00000290: 192c fabd 379f 863d 843d 20bd daf8 b8bd
000002a0: 08bc 0d3d a0c0 653d d92a aa3d 2023 aabd
000002b0: 226e 86bd d672 bfbb 0478 42bc 6745 e13b
000002c0: bcfe a33d 1096 a33d b21e 393c f4e6 1ebc
000002d0: 1e2b 9ebc e8fc d43d 1364 763d d3de c6bc
000002e0: 4dad debd 3b72 7bbc a32b 8cbd 7b59 f3bc
000002f0: 487c e1bc c016 90bc 9041 46bd 449a f0bc
00000300: 9877 503d 2dd8 abbc 3cea aebd 8162 b9b9
00000310: 644d 233d 9d85 123b 0d6b a33d ac21 a7ba
00000320: aac4 4f3c cc04 3cbc d048 8cbd 007d 223d
00000330: 6210 ed3b ef17 96ba c448 2d3c f975 563d
00000340: 0e32 b7bd 4046 573d 2067 683c 745d a33d
00000350: 6e6f ba3c 2229 8d3d ce39 b93c 004a 7f3a
00000360: e007 3bbd e19f 8dbc a03b 5b3d 8f8b 703d
00000370: 78a5 fdbd 80e5 813c 783d 89bd 846a 523d
00000380: c54d 923d bc56 7ebd 8159 253d 7c8c 43bd
00000390: 5e26 e9bd 8d5d e83d 3c66 7bbd 6a02 e43d
000003a0: 2d3f 493d 9fae 37bd 3b29 d53d c6d5 f23d
000003b0: 3ca1 833c 1033 6cbd 62ae f93d bb38 0a3b
000003c0: 00b6 61bc 6d28 b43d c080 ebbc 24ec 483b
000003d0: 1e46 89bd 9ad0 e8bd 0984 abbc f272 d8bc
000003e0: 7848 8d3c 5ba5 78bc 81ef 4ebd 2a30 f6bb
000003f0: 1386 e93c 34f8 473d c103 c63d 4038 c13d

layers.6.bias f4 [38]
0.71513456 -0.08733948 -0.058580093 -0.020640315 -0.0024292348 -0.0338221 0.053543642 0.14291957
-0.006497577 0.015928594 0.37340885 0.41977105 0.36694792 0.38660517 0.43871436 0.4617042
0.49950248 0.58036137 0.55676705 0.5211691 0.511942 0.44278264 0.3566619 0.4784743
-0.029947657 -0.10126066 -0.11764166 -0.07958179 -0.01385692 -0.13234471 -0.045078825 -0.028815378
-0.10147863 -0.13428964 -0.14593004 -0.12860312 -0.028620826 -0.024348097
00000000: 0f13 373f 0bdf b2bd aef1 6fbd e115 a9bc
00000010: cc33 1fbb 0b89 0abd 9450 5b3d 8259 123e
00000020: a0e9 d4bb af7c 823c 722f bf3e 3bec d63e
00000030: 99e0 bb3e 1df1 c53e 2b9f e03e 7e64 ec3e
00000040: cabe ff3e 9092 143f 4988 0e3f 576b 053f
00000050: a20e 033f 68b4 e23e 639c b63e 95fa f43e
00000060: ca54 f5bc c061 cfbd 1cee f0bd c7fb a2bd
00000070: 2308 63bc 5f85 07be 93a4 38bd 3a0e ecbc
00000080: 07d4 cfbd 3983 09be af6e 15be 89b0 03be
00000090: 3976 eabc a975 c7bc

layers.7.lower_bound f4 [24]
0.0 0.0 0.0 0.0 0.0 0.0 -0.3 0.0
-0.06 -0.06 0.94 0.94 0.94 0.94 0.94 0.94
0.94 0.94 0.94 0.94 0.94 0.94 0.94 0.94
00000000: 0000 0000 0000 0000 0000 0000 0000 0000
00000010: 0000 0000 0000 0000 9a99 99be 0000 0000
00000020: 8fc2 75bd 8fc2 75bd d7a3 703f d7a3 703f
00000030: d7a3 703f d7a3 703f d7a3 703f d7a3 703f
00000040: d7a3 703f d7a3 703f d7a3 703f d7a3 703f
00000050: d7a3 703f d7a3 703f d7a3 703f d7a3 703f

onnx::Mul_195 f4 [24]
3.4 0.59 0.0 0.0 0.0 0.1 0.6 0.4
0.29999998 0.29999998 0.119999945 0.119999945 0.119999945 0.119999945 0.119999945 0.119999945
0.119999945 0.119999945 0.119999945 0.119999945 0.119999945 0.119999945 0.119999945 0.119999945
00000000: 9a99 5940 3d0a 173f 0000 0000 0000 0000
00000010: 0000 0000 cdcc cc3d 9a99 193f cdcc cc3e
00000020: 9999 993e 9999 993e 88c2 f53d 88c2 f53d
00000030: 88c2 f53d 88c2 f53d 88c2 f53d 88c2 f53d
00000040: 88c2 f53d 88c2 f53d 88c2 f53d 88c2 f53d
00000050: 88c2 f53d 88c2 f53d 88c2 f53d 88c2 f53d
