onnx/118_ieee_ml4acopf-linear-nonresidual.onnx (onnx, 937635 bytes, 16 tensors)

layers.0.weight f4 [128, 198]
0.06478197 0.06698795 -0.0051644756 0.07848378 -0.03735518 0.010288335 -0.04250395 -0.05370607
-0.0065570828 -0.041929845 -0.009497117 0.05751969 -0.018225545 -0.07746384 -0.052402172 0.011873339
0.009415796 0.03771119 -0.032730993 0.007900223 0.032506682 0.053173732 0.02291791 -0.023006955
0.07261518 0.029954137 -0.066007495 0.0061137658 -0.034563273 0.025666354 0.049807154 0.003057089
0.015847672 0.011710739 -0.054070357 0.017199898 0.008394882 -0.019461388 -0.06909991 -0.08171194
0.025240533 -0.01216874 0.0519048 0.0019724756 0.02719334 -0.02724477 -0.06484196 0.0043672062
0.01193507 0.017235452 0.00950453 -0.059405074 0.055432122 0.025859302 -0.018615622 0.060077623
-0.023281898 0.041638073 -0.020239076 -0.050657578 0.04932627 -0.008579612 -0.055530783 0.033097394
-0.006040043 -0.002488839 -0.048752826 -0.049833953 0.029630044 -0.06645171 0.059875574 -0.072168745
-0.038081393 0.026668957 0.037873216 -0.011101692 -0.05539931 -0.02971671 -0.072435014 -0.08274191
-0.016810047 0.039109588 0.04615118 -0.07850169 -0.041773472 -0.016832137 -0.08628829 0.008435073
-0.052357204 0.042647637 -0.00788759 -0.069182865 0.009698031 0.04595295 -0.05274699 -0.0055039725
-0.05802779 -0.05837723 0.050461523 0.04909386 -0.052150954 0.025470085 0.03942138 0.011941555
0.015671285 0.06124407 -0.00939277 -0.018283969 -0.039650086 -0.06663383 0.043963823 -0.065572865
-0.044634033 0.0020252992 0.03654061 -0.020956349 -0.07394781 -0.015065441 0.034845985 0.0017976812
-0.032721233 -0.012523758 0.05339813 0.016877884 -0.062555656 0.024755282 -0.08833367 0.028783102
-0.0722794 -0.0034601905 0.025213435 -0.03393421 -0.040392566 -0.03520198 -0.08945725 0.0021862055
0.015603923 0.030165724 -0.023783267 0.016558543 -0.03732079 -0.0032382826 -0.079353936 -0.02725925
-0.065653756 0.027293224 0.037963938 0.004166053 -0.033707667 -0.050756663 -0.06119325 -0.027969867
-0.008877748 -0.08014488 -0.054241486 0.01795875 -0.04147953 0.013045971 0.04075373 0.026377946
0.006857994 0.0052091214 -0.07813844 0.04093399 0.050825536 0.024405334 -0.006954139 -0.040193178
-0.042424843 -0.03010188 -0.06724138 -0.013808652 -0.019091152 0.05586349 0.045602374 0.040246878
-0.06756087 -0.031473342 -0.10948573 0.054324877 -0.08990348 0.044521216 0.004202975 -0.017607968
-0.083206356 0.02467209 -0.06281101 -0.079896 0.0008381715 -0.05970587 0.026992297 -0.06359243
0.04033363 -0.04982382 0.055082794 0.06981515 -0.02207206 0.00879859 0.058926214 -0.03638421
0.013747214 -0.023017325 0.02676958 -0.06698742 -0.005607031 0.03045222 0.049255297 -0.07571351
0.015197207 -0.035692662 0.026892219 0.051707733 -0.046520405 -0.026302444 0.023501547 0.04665062
-0.0073224204 0.019929012 -0.06953141 0.0005954023 0.05166332 -0.044548657 -0.07354513 -0.012185791
0.05825461 -0.05962782 -0.017898984 -0.010479896 -0.028850071 -0.06930777 0.0026536381 0.027016345
0.010961235 0.04962266 0.065126404 0.0384619 0.036707986 0.05724848 0.06533484 -0.03784769
-0.07070696 -0.006251522 -0.07589273 0.061832476 0.040729135 -0.0059163766 0.018333793 -0.036469102
-0.069717705 -0.052679062 -0.04399218 -0.039546505 0.02642796 0.063775375 -0.06577748 0.032203525
00000000: 69ac 843d fa30 893d c33a a9bb 1bbc a03d
00000010: bf01 19bd 6890 283c 9f18 2ebd e5fa 5bbd
00000020: ccdc d6bb a1be 2bbd cc99 1bbc c499 6b3d
00000030: bd4d 95bc 5da5 9ebd a9a3 56bd 6588 423c
00000040: b644 1a3c 0c77 1a3d ef10 06bd f06f 013c
00000050: ba25 053d b3cc 593d 57be bb3c 1579 bcbc
00000060: 44b7 943d 6162 f53c f02e 87bd fc55 c83b
00000070: 3892 0dbd 3f42 d23c 9602 4c3d 7159 483b
00000080: fad2 813c 66de 3f3c e178 5dbd cde6 8c3c
00000090: b08a 093c 7d6d 9fbc 4184 8dbd 9758 a7bd
000000a0: 3cc5 ce3c 655f 47bc 219a 543d a644 013b
000000b0: 91c4 de3c 6d30 dfbc ddcb 84bd c81a 8f3b
000000c0: 508b 433c 5d31 8d3c e3b8 1b3c bc52 73bd
000000d0: cb0c 633d e3d6 d33c ca7f 98bc f413 763d
000000e0: aeb9 bebc af8c 2a3d 6bcc a5bc 527e 4fbd
000000f0: 580a 4a3d 8091 0cbc 3f74 63bd 2291 073d
00000100: 8eeb c5bb ca1b 23bb 0bb1 47bd b01e 4cbd
00000110: b5ba f23c d617 88bd 1740 753d 35cd 93bd
00000120: 3cfb 1bbd db78 da3c f220 1b3d dfe3 35bc
00000130: 63ea 62bd 7570 f3bc cf58 94bd 9774 a9bd
00000140: 39b5 89bc 6031 203d 0509 3d3d 7ec5 a0bd
00000150: a91a 2bbd 8de3 89bc eab7 b0bd 4333 0a3c
00000160: 8274 56bd 4aaf 2e3d f33a 01bc bfaf 8dbd
00000170: 7de4 1e3c 2939 3c3d 3a0d 58bd ab5a b4bb
00000180: 8cae 6dbd f61c 6fbd beb0 4e3d a516 493d
00000190: 3d9c 55bd a4a6 d03c 5078 213d 83a6 433c
000001a0: 1161 803c 10db 7a3d 22e4 19bc 43c8 95bc
000001b0: 2168 22bd 5177 88bd 6913 343d 114b 86bd
000001c0: 2dd2 36bd e2ba 043b 9bab 153d a6ac abbc
000001d0: f371 97bd 0ad5 76bc aaba 0e3d 2ca0 eb3a
000001e0: b306 06bd 7330 4dbc ffb7 5a3d 7d43 8a3c
000001f0: 2e1d 80bd 97cb ca3c 48e8 b4bd 8aca eb3c
00000200: 3907 94bd 5dc4 62bb 688c ce3c 99fe 0abd
00000210: ad72 25bd f42f 10bd 5d35 b7bd 7146 0f3b
00000220: 99a7 7f3c 1c1e f73c 20d5 c2bc c8a5 873c
00000230: afdd 18bd 5e39 54bb 5184 a2bd ca4e dfbc
00000240: 7a75 86bd 0a96 df3c 1380 1b3d 6383 883b
00000250: 0d11 0abd 38e6 4fbd c6a5 7abd 1021 e5bc
00000260: f973 11bc 0023 a4bd 522c 5ebd 3a1e 933c
00000270: 71e6 29bd c5be 553c 62ed 263d 9016 d83c
00000280: 06b9 e03b 47b1 aa3b 0c07 a0bd 66aa 273d
00000290: 702e 503d b2ed c73c 8cdf e3bb 9aa1 24bd
000002a0: acc5 2dbd 3898 f6bc d9b5 89bd af3d 62bc
000002b0: 0c65 9cbc 1dd1 643d 8ec9 3a3d e9d9 243d
000002c0: 5a5d 8abd 31ea 00bd 0e3a e0bd c383 5e3d
000002d0: 511f b8bd e15b 363d 1cb9 893b 963e 90bc
000002e0: 1868 aabd 1f1d ca3c 0fa3 80bd 84a0 a3bd
000002f0: bdb8 5b3a 248e 74bd f31e dd3c bf3c 82bd
00000300: e034 253d 1014 4cbd 7f9e 613d 3ffb 8e3d
00000310: 77d0 b4bc f627 103c 9d5c 713d 9c07 15bd
00000320: ff3b 613c d48e bcbc e14b db3c b330 89bd
00000330: 2fbb b7bb ef76 f93c ecbf 493d af0f 9bbd
00000340: b5fd 783c 7832 12bd 124d dc3c 7dcb 533d
00000350: 2e8c 3ebd 3978 d7bc 5186 c03c b814 3f3d
00000360: eaf0 efbb 2b42 a33c 7c66 8ebd c614 1c3a
00000370: eb9c 533d a778 36bd d49e 96bd e9a6 47bc
00000380: 639c 6e3d 4d3c 74bd e4a0 92bc dfb3 2bbc
00000390: fc56 ecbc 3bf1 8dbd a9e8 2d3b 6251 dd3c
000003a0: c096 333c 2141 4b3d fe60 853d 3a8a 1d3d
000003b0: 1d5b 163d 627d 6a3d 46ce 853d 2e06 1bbd
000003c0: d0ce 90bd 91d9 ccbb a66d 9bbd 0d44 7d3d
000003d0: 98d3 263d 2ade c1bb c030 963c a060 15bd
000003e0: 28c8 8ebd 00c6 57bd 2531 34bd 84fb 21bd
000003f0: 737f d83c aa9c 823d 58b6 86bd d8e7 033d

layers.0.bias f4 [128]
0.27014992 0.041644625 -0.37177348 -0.014585019 -0.50570494 0.018298797 -0.17711931 -0.06257959
-0.05385075 0.03812713 -0.7627261 -0.45715827 -0.03237369 -0.076874346 -0.063164815 0.34489483
-0.008768253 0.22267951 0.024350613 0.21871468 -0.03899014 -0.44459292 -0.012519493 -0.53872764
0.021141125 -0.048660938 0.47816944 -0.0398588 -0.059810046 -0.026113002 0.016989835 -0.3413576
0.23791882 -0.17339726 -0.0054642153 -0.062260572 0.09602769 -0.22065434 -0.0003505742 -0.8774774
0.0047849445 0.042762768 -0.041460205 -0.22618721 0.09986281 0.033802927 -0.043194197 -0.43259963
-0.053228106 0.28866342 -0.06322408 -0.04796804 -0.046279132 -0.016989669 -0.04248608 -0.048427317
-0.024239168 -0.054986205 -0.24652858 0.030331945 0.0074633327 0.069131106 0.25894263 0.34661692
-0.24706766 0.015479199 0.04621435 -0.026505133 -0.04728396 -0.1941646 0.0063629695 0.053476922
0.0670956 0.039139982 -0.023172885 -0.22890547 -0.022211695 -0.069496125 -0.25100332 -0.21846682
0.24697597 -0.19985344 0.041217007 0.13063762 -0.16686904 -0.030490737 1.6681044e-05 -0.37342155
-0.01864951 0.048325233 -0.02032334 0.02858411 -0.047330238 -0.0735067 -0.17038828 -0.054869175
0.06868525 0.005631452 -0.19053826 -0.35833916 -0.0537581 -0.24173665 -0.2721156 -0.048969343
-0.15314354 0.07087522 0.045471746 0.0055768145 0.35610172 0.020433381 -0.31469032 0.047407087
0.02031248 0.033324286 -0.08292194 -0.014782091 -0.041850116 0.31881702 0.14709198 0.034465816
-0.059185956 0.02991339 0.017949576 -0.19976078 -0.22888479 0.17622307 -0.21199319 -0.048708934
00000000: 1751 8a3e 8e93 2a3d 1859 bebe 01f6 6ebc
00000010: e175 01bf 5ce7 953c c45e 35be ba29 80bd
00000020: 9b92 5cbd 322b 1c3d 0542 43bf a610 eabe
00000030: 469a 04bd 4c70 9dbd 8e5c 81bd 0e96 b03e
00000040: b8a8 0fbc 1906 643e f07a c73c bef6 5f3e
00000050: 20b4 1fbd afa1 e3be 8f1e 4dbc 0eea 09bf
00000060: 2730 ad3c b150 47bd a0d2 f43e fb42 23bd
00000070: 61fb 74bd efea d5bc 442e 8b3c 6cc6 aebe
00000080: fea0 733e 0d8f 31be 290d b3bb f104 7fbd
00000090: 2aaa c43d 36f3 61be 46cd b7b9 5ca2 60bf
000000a0: 06cb 9c3b 0328 2f3d 2dd2 29bd 9f9d 67be
000000b0: df84 cc3d f074 0a3d 66ec 30bd b37d ddbe
000000c0: b705 5abd b1cb 933e a07b 81bd 237a 44bd
000000d0: 308f 3dbd eb2d 8bbc e205 2ebd b95b 46bd
000000e0: 3891 c6bc 3739 61bd fd71 7cbe b37a f83c
000000f0: f98e f43b 9c94 8d3d 2194 843e c677 b13e
00000100: 4eff 7cbe 779c 7d3c 424b 3d3d 4b21 d9bc
00000110: d3ac 41bd 16d3 46be 7580 d03b 9e0a 5b3d
00000120: 6b69 893d 3f51 203d 10d5 bdbc 3266 6abe
00000130: 4df5 b5bc fc53 8ebd 8283 80be c4b5 5fbe
00000140: 45e7 7c3e 61a6 4cbe 2ad3 283d dec5 053e
00000150: b8df 2abe b6c7 f9bc 45ee 8b37 1c31 bfbe
00000160: dbc6 98bc aef0 453d 227d a6bc 3929 ea3c
00000170: 5add 41bd ae8a 96bd 447a 2ebe 80be 60bd
00000180: daaa 8c3d 0b88 b83b 761c 43be 3b78 b7be
00000190: 7431 5cbd d089 77be bc52 8bbe 1494 48bd
000001a0: a9d1 1cbe 0727 913d 9540 3a3d b6bd b63b
000001b0: f752 b63e e863 a73c 171f a1be ef2d 423d
000001c0: 5c66 a63c 0c7f 083d fad2 a9bd 9530 72bc
000001d0: 076b 2bbd fc3b a33e 489f 163e 072c 0d3d
000001e0: f96c 72bd ed0c f53c fd0a 933c 178e 4cbe
000001f0: c660 6abe d273 343e be14 59be 0583 47bd

layers.2.weight f4 [128, 128]
0.018774478 0.07590296 0.01107727 0.06161591 0.052884445 0.03807265 -0.09004332 0.054025747
0.008153066 0.06744124 -0.03383385 0.00333578 0.012505644 -0.08629788 -0.05304167 0.004274564
-0.05286855 -0.044648796 0.0019055539 -0.019918619 -0.018586075 -0.01451919 -0.033457443 0.0015357566
0.034998745 0.07320538 -0.026971731 -0.03957529 -0.0517443 0.059251565 0.056173034 -0.035605654
0.06337483 0.0050886925 0.033929646 -0.016630517 0.020585867 0.065652005 -0.042087186 -0.090208605
-0.07102452 0.056821484 -0.031235155 0.009417657 -0.06711448 -0.019904913 0.033093683 -0.062785015
-0.057718474 -0.039062023 -0.0730074 0.041853737 0.0150130335 -0.041134655 0.016409116 -0.036633417
0.030775797 0.042568147 -0.006967131 0.057948604 -0.05734345 -0.04275243 -0.09936942 0.003559369
-0.09879846 0.06612089 -0.03082818 0.06981425 0.025719514 0.074394256 -0.007223542 0.051998734
-0.03373444 0.050524734 -0.044835195 0.0236181 -0.011684423 0.050885692 -0.026459388 -0.08809377
-0.045143757 0.065504044 -0.00065878686 0.051255625 -0.011139761 0.005327309 0.0032770438 0.05467431
0.041190274 0.04134827 -0.009059349 -0.032944925 -0.03803378 -0.07518216 0.07250234 -0.0663985
0.044539988 -0.09007578 -0.05593848 0.06832539 -0.032280345 0.04227434 0.064768866 0.051418025
0.05092668 -0.025852328 0.06841437 0.057660766 -0.06749085 -0.010429501 -0.057611257 0.0410571
-0.05951015 0.043822225 0.015290142 0.039414804 -0.08738558 -0.020987986 0.00284234 0.012497468
-0.055798486 0.06824131 -0.04132454 0.056180436 -0.05448972 -0.0058439826 -0.058727123 -0.02495009
0.055512212 -0.036183503 0.03335587 -0.064412214 0.027876044 -0.049411025 -0.018157126 0.021637559
-0.023613477 0.08177386 0.055571385 0.022067117 0.083207086 0.029548544 0.045984223 -0.045571677
0.07772463 -0.03830971 -0.01919457 -0.10478299 0.024907734 -0.044136662 0.046732876 0.024760528
-0.02649038 -0.04062978 -0.02678619 0.030097391 -0.04774768 0.018902725 -0.048078522 0.0013591946
-0.03996589 -0.028964836 0.08386261 -0.027876852 -0.09099671 0.052289262 0.046423677 -0.06924378
-0.0071021547 -0.05235688 -0.066045776 -0.05317789 -0.015723513 0.058299102 0.028129775 0.0017871025
0.044608235 -0.054888777 -0.054477118 -0.03145528 0.018172499 0.069111414 0.02100697 -0.07509893
-0.045826815 -0.009888799 0.05279891 0.06141803 0.07449593 -0.1049263 -0.0033086422 0.03575515
-0.11521684 -0.009995494 0.005276322 -0.05533093 0.06676828 0.03764393 -0.07203986 -0.07747514
0.032567795 0.026923658 0.083031185 0.045656394 0.021953303 -0.06489464 -0.11544736 -0.0966215
-0.050193734 -0.1062615 0.0062510413 -0.08601081 -0.09206938 -0.08798652 0.05915169 -0.06691867
0.063748986 -0.051041383 -0.06044718 0.050963137 0.034026194 0.061807882 0.035737436 0.006853425
0.024888914 -0.0037838249 -0.06483727 -0.08504215 0.07739429 0.05118908 -0.106221005 -0.041050684
-0.06893785 -0.061697908 0.07206722 0.03751608 -0.09733147 0.04439853 -0.06807513 -0.07060938
-0.0022163026 0.038661566 -0.019602636 -0.05728918 0.00556979 0.016643623 -0.031975716 -0.061076347
-0.04003822 0.076625206 -0.07516871 -0.05875074 -0.03707054 -0.028537154 0.016393758 0.024830753
00000000: efcc 993c 0373 9b3d 707d 353c f760 7c3d
00000010: 5c9d 583d 11f2 1b3d a268 b8bd 1a4a 5d3d
00000020: 7094 053c a21e 8a3d 5d95 0abd 1a9d 5a3b
00000030: 79e4 4c3c f1bc b0bd 3942 59bd a411 8c3b
00000040: b18c 58bd a8e1 36bd c7c3 f93a 5f2c a3bc
00000050: d341 98bc e6e1 6dbc ac0a 09bd 714b c93a
00000060: d85a 0f3d b4ec 953d d2f3 dcbc b319 22bd
00000070: d5f1 53bd c5b1 723d b215 663d 3cd7 11bd
00000080: aaca 813d 0cbf a63b d0f9 0a3d b93c 88bc
00000090: b1a3 a83c 8f74 863d 9d63 2cbd 4abf b8bd
000000a0: 4e75 91bd a5bd 683d dee0 ffbc 844c 1a3c
000000b0: 5173 89bd a10f a3bc 3e8d 073d 6e95 80bd
000000c0: 356a 6cbd 80ff 1fbd e784 95bd d36e 2b3d
000000d0: 3af9 753c d07c 28bd 696c 863c ec0c 16bd
000000e0: 861d fc3c f05b 2e3d 884c e4bb 845b 6d3d
000000f0: f7e0 6abd 2c1d 2fbd 3282 cbbd 4d44 693b
00000100: d956 cabd 646a 873d 618b fcbc c6fa 8e3d
00000110: bbb1 d23c 045c 983d 76b3 ecbb a0fc 543d
00000120: 202d 0abd 06f3 4e3d 1ca5 37bd bf7a c13c
00000130: 0670 3fbc 846d 503d 5cc1 d8bc 826a b4bd
00000140: a9e8 38bd fc26 863d 70b2 2cba 6bf1 513d
00000150: 8b83 36bc b590 ae3b acc3 563b 2bf2 5f3d
00000160: 22b7 283d ce5c 293d aa6d 14bc 42f1 06bd
00000170: 4fc9 1bbd 1bf9 99bd 1b7c 943d f0fb 87bd
00000180: 906f 363d a779 b8bd bf1f 65bd 2fee 8b3d
00000190: 6538 04bd dc27 2d3d 8aa5 843d b59b 523d
000001a0: 7f98 503d 43c8 d3bc d51c 8c3d b22d 6c3d
000001b0: a538 8abd 7fe0 2abc c8f9 6bbd 7d2b 283d
000001c0: eac0 73bd ef7e 333d 8183 7a3c 6b71 213d
000001d0: 36f7 b2bd ffee abbc 8d46 3a3b 2ec2 4c3c
000001e0: f48c 64bd 1ac2 8b3d ec43 29bd 751d 663d
000001f0: 9d30 5fbd e17e bfbb da8b 70bd 2264 ccbc
00000200: c660 633d 2735 14bd 2aa0 083d 8dea 83bd
00000210: 4d5c e43c 3763 4abd 41be 94bc 4041 b13c
00000220: 0d71 c1bc 0e79 a73d d29e 633d 19c6 b43c
00000230: 7a68 aa3d ca0f f23c f459 3c3d 5ea9 3abd
00000240: 172e 9f3d a4ea 1cbd ee3d 9dbc 7798 d6bd
00000250: 4e0b cc3c a5c8 34bd f96a 3f3d 97d6 ca3c
00000260: 5a02 d9bc 6a6b 26bd b66e dbbc ce8e f63c
00000270: 1293 43bd e3d9 9a3c fced 44bd 0127 b23a
00000280: 46b3 23bd aa47 edbc 29c0 ab3d ff5d e4bc
00000290: 7c5c babd 442d 563d c126 3e3d afcf 8dbd
000002a0: 31b9 e8bb 2b74 56bd 0243 87bd 0fd1 59bd
000002b0: 99ce 80bc 0acb 6e3d 6a70 e63c 363d ea3a
000002c0: 20b7 363d 0ed3 60bd 6623 5fbd 40d7 00bd
000002d0: 7ede 943c 498a 8d3d cf16 ac3c 78cd 99bd
000002e0: e6b4 3bbd a104 22bc ab43 583d 7991 7b3d
000002f0: 5291 983d 9ae3 d6bd ced5 58bb fe73 123d
00000300: cef6 ebbd 24c4 23bc ffe4 ac3b afa2 62bd
00000310: cfbd 883d 8630 1a3d a289 93bd 49ab 9ebd
00000320: cf65 053d 018f dc3c 410c aa3d 3302 3b3d
00000330: 6ad7 b33c 7be7 84bd aa6f ecbd 7ee1 c5bd
00000340: f297 4dbd a19f d9bd 89d5 cc3b 7026 b0bd
00000350: df8e bcbd 4732 b4bd 0b49 723d a80c 89bd
00000360: d48e 823d c510 51bd 7697 77bd b9be 503d
00000370: 0d5f 0b3d 432a 7d3d 6b61 123d b292 e03b
00000380: d6e3 cb3c 0cfa 77bb 67c9 84bd 942a aebd
00000390: e680 9e3d a4ab 513d 668a d9bd c324 28bd
000003a0: 4a2f 8dbd f2b6 7cbd fb97 933d 76aa 193d
000003b0: b955 c7bd 3cdb 353d f96a 8bbd a79b 90bd
000003c0: 633f 11bb 975b 1e3d b595 a0bc 0fa8 6abd
000003d0: c982 b63b 3558 883c f8f8 02bd 312b 7abd
000003e0: 1eff 23bd aded 9c3d 0df2 99bd 9ea4 70bd
000003f0: 47d7 17bd c0c6 e9bc 344c 863c dd69 cb3c

layers.2.bias f4 [128]
0.04094452 -0.08410948 -0.10092128 -0.05103077 0.053790405 -0.055476427 -0.64960736 0.7141102
-0.01671873 -0.4026637 -0.5563266 -0.48687363 -0.10209296 0.015130512 -0.63462687 -0.054241437
0.017032398 -0.48106828 -0.04878514 -0.11598261 -0.6101863 -0.038952105 0.6373032 0.6862924
-0.06871182 -0.08899464 -0.03371293 -0.6928674 0.6177147 -0.006822884 0.047321565 0.54664284
0.6141775 0.50714177 -0.587438 -0.02904644 -0.05953786 0.66627705 0.33426207 -0.06388401
0.33354932 -0.06200437 -0.008704788 -0.038352616 0.40251294 -0.025198525 -0.0004517634 0.020483261
-0.04098675 -0.38232118 -0.022449045 -0.31180748 -0.56915444 -0.0768516 0.01852933 -0.027907688
-0.52164364 -0.07721839 0.43343312 -0.023950288 0.011540323 -0.076683775 0.27440113 0.5341973
0.6326477 -0.030181883 -0.09392321 -0.013453237 0.5343867 -0.0056170966 -0.03960555 -0.2831388
-0.04304099 0.009974098 -0.04232295 -0.008477912 -0.0015590122 -0.041215997 -0.04810143 0.0012059356
-0.2640659 0.6000364 -0.10520617 -0.047735162 -0.018157806 -0.084015384 -0.08409314 0.68246883
-0.5795099 0.6676323 -0.49873564 -0.080567546 -0.49208534 0.018957611 -0.08498853 -0.059269313
-0.038347214 0.0059630517 -0.06683245 -0.62895393 0.5205035 0.035123378 -0.08452832 -0.09818825
-0.6968918 -0.07667871 0.022730278 -0.0773502 -0.6381228 0.5970826 -0.56272596 -0.27923542
0.0009953122 -0.07572047 -0.051527224 -0.5665895 -0.06013344 -0.054638654 -0.02075671 -0.12292111
-0.02890217 0.5638496 -0.10206056 -0.23044457 -0.55016875 0.01574233 -0.06952034 -0.104083166
00000000: 71b5 273d 9741 acbd d1af cebd a405 51bd
00000010: 5453 5c3d 403b 63bd ab4c 26bf edcf 363f
00000020: b8f5 88bc f029 cebe 6c6b 0ebf 8047 f9be
00000030: 1d16 d1bd f8e5 773c e876 22bf 452c 5ebd
00000040: 8787 8b3c 954e f6be edd2 47bd 4a88 edbd
00000050: 2b35 1cbf 3e8c 1fbd 4d26 233f dcb0 2f3f
00000060: c8b8 8cbd d242 b6bd 9216 0abd c25f 31bf
00000070: 8d22 1e3f 8092 dfbb 42d4 413d c9f0 0b3f
00000080: bd3a 1d3f 0bd4 013f 5662 16bf cdf2 edbc
00000090: f9dd 73bd 2291 2a3f 6624 ab3e 9fd5 82bd
000000a0: fac6 aa3e 4bf8 7dbd 879e 0ebc a217 1dbd
000000b0: 2d16 ce3e 236d cebc a8da ecb9 83cc a73c
000000c0: b9e1 27bd 9abf c3be 0fe7 b7bc 3ba5 9fbe
000000d0: 1bb4 11bf 5f64 9dbd d2ca 973c aa9e e4bc
000000e0: 708a 05bf ad24 9ebd f2ea dd3e 6533 c4bc
000000f0: 9f13 3d3c 620c 9dbd 4e7e 8c3e 27c1 083f
00000100: 33f5 213f ff3f f7bc d05a c0bd f76a 5cbc
00000110: 91cd 083f 9f0f b8bb 6e39 22bd 92f7 90be
00000120: c04b 30bd 666a 233c d45a 2dbd f1e6 0abc
00000130: c557 ccba 1bd2 28bd 0106 45bd 7c10 9e3a
00000140: a533 87be fc9b 193f 5576 d7bd f285 43bd
00000150: aebf 94bc 4210 acbd 0639 acbd 47b6 2e3f
00000160: c35a 14bf f3e9 2a3f 475a ffbe 9900 a5bd
00000170: 9cf2 fbbe fe4c 9b3c 770e aebd 61c4 72bd
00000180: f811 1dbd b465 c33b 74df 88bd 2003 21bf
00000190: b83f 053f 88dd 0f3d 2f1d adbd ec16 c9bd
000001a0: 8067 32bf ba09 9dbd d934 ba3c c869 9ebd
000001b0: 045c 23bf 68da 183f cf0e 10bf f2f7 8ebe
000001c0: 2375 823a 5513 9bbd 360e 53bd 020c 11bf
000001d0: 7b4e 76bd c8cc 5fbd fa09 aabc 10be fbbd
000001e0: 3ec4 ecbc 7358 103f 2005 d1bd a9f9 6bbe
000001f0: dcd7 0cbf 0ff6 803c ae60 8ebd 8e29 d5bd

layers.4.weight f4 [256, 128]
-0.02241695 0.084384575 0.06106401 -0.007668387 -0.0032232539 0.045375023 0.004062861 -0.0033538353
0.018623112 -0.059416886 -0.053026307 0.05777398 0.08380406 0.04374652 -0.057888497 -0.053261247
-0.006440544 0.07159634 -0.041098244 -0.07677281 0.05156393 -0.040467203 -0.04206736 0.02902015
-0.0433011 -0.030370893 0.04944903 0.013922979 -0.049974825 -0.07869624 0.002330257 -0.06337073
0.02307523 -0.027016109 0.047291756 0.04221324 0.055332784 -0.068750076 0.03823344 -0.039057314
-0.033621732 0.067616776 0.0033793447 -0.026645247 -0.04780957 0.028574668 -0.08676306 0.0500554
-0.085144565 0.05816893 -0.057658035 -0.040177558 -0.079035215 -0.018971791 0.011208322 0.07306379
0.045445323 0.07833255 -0.07285151 0.033884168 -0.06383998 0.052122217 0.01958918 -0.050043818
0.06404325 -0.080731906 -0.033114947 0.064068854 -0.07923036 -0.084426835 0.016027508 -0.08712239
-0.0477393 -0.04454494 -0.029153101 0.042448577 -0.018289804 -0.047072824 0.026336059 0.08065605
0.010240283 -0.019788504 -0.004789252 0.06475493 0.027482506 0.07701466 0.057406906 0.064393274
0.028679593 -0.080904625 0.009268461 -0.056991674 -0.04184827 0.06617282 -0.0083165215 -0.02004365
0.032993976 -0.038068086 -0.04014388 0.03741654 -0.023570688 -0.08776236 0.07351801 -0.070762694
0.004548193 0.025346007 -0.07620732 -0.06362083 -0.08501129 0.03549974 -0.06486363 0.053962316
-0.06439557 0.039179888 0.010401168 -0.055528842 -0.0070692906 -0.065157205 -0.06503724 -0.00765411
-0.06770506 -0.08379824 -0.082487166 -0.027784908 -0.063123405 -0.029283218 0.044073686 0.06499282
0.01727144 0.05422335 -0.066337734 -0.08309646 -0.04838417 0.06025387 0.061798356 0.04530189
-0.0009754045 -0.0855597 -0.042717177 -0.11366993 0.034692314 -0.038035266 -0.03393346 0.019910086
0.041235138 0.022222495 0.047742855 0.029817767 0.030245228 0.016784951 -0.09100471 -0.037209652
-0.044780068 0.054479163 -0.048522454 0.030394925 -0.020897126 0.070368916 0.0056179324 0.012626665
-0.025060669 0.052744232 -0.088925764 -0.039482884 0.0025785125 -0.10518164 -0.017197134 -0.03610908
-0.015374935 0.06531874 -0.08218075 -0.08361298 -0.109241575 -0.024412803 -0.012168111 0.009723194
0.06493717 -0.058673836 -0.008946374 0.030846182 -0.035086438 -0.066985175 0.015175774 -0.04596886
-0.023541113 -0.0802077 -0.047802802 0.08164059 0.087563425 0.014593862 -0.04650439 0.0009288737
-0.015797213 -0.060867414 0.0056000412 -0.036085173 -0.03340915 0.01792771 -0.015044244 -0.060866863
0.014492405 -0.03989764 -0.012308134 0.032058872 0.014154155 -0.008738219 0.005188635 -0.08259706
-0.10867251 -0.10585273 -0.06517007 0.041549638 -0.050087832 0.07060526 0.00023952054 -0.04614182
-0.09799341 -0.10912431 -0.06552907 0.0667455 -0.1139769 -0.022067131 -0.016628765 -0.024289608
0.061261654 0.023316596 0.010522256 -0.008784433 -0.065143965 0.0042859656 0.07168428 0.055959266
-0.0041664415 -0.025578143 0.024319205 0.030195255 -0.11224962 0.046714302 -0.032653328 -0.003838089
-0.08010816 0.076400496 0.06738861 -0.020500021 -0.036524467 0.05729291 -0.016657583 0.020066377
0.041425683 -0.022216242 -0.035629258 -0.10571049 0.04020119 0.056313403 -0.076047875 -0.078909636
00000000: c0a3 b7bc d2d1 ac3d 411e 7a3d 1847 fbbb
00000010: 3a3d 53bb 29db 393d c021 853b 05cc 5bbb
00000020: 7f8f 983c 1f5f 73bd 1d32 59bd 69a4 6c3d
00000030: 77a1 ab3d 8d2f 333d 7d1c 6dbd 7728 5abd
00000040: 330b d3bb 1aa1 923d a256 28bd 103b 9dbd
00000050: b334 533d f0c0 25bd d34e 2cbd aabb ed3c
00000060: 7f5c 31bd 61cc f8bc 118b 4a3d 351d 643c
00000070: 67b2 4cbd 7f2b a1bd 3ab7 183b 83c8 81bd
00000080: 4408 bd3c e350 ddbc 00b5 413d cae7 2c3d
00000090: a1a4 623d d7cc 8cbd ab9a 1c3d 90fa 1fbd
000000a0: f1b6 09bd aa7a 8a3d ff77 5d3b 2247 dabc
000000b0: f8d3 43bd 6c15 ea3c d5b0 b1bd e406 4d3d
000000c0: 4660 aebd 8b42 6e3d d52a 6cbd 3991 24bd
000000d0: 37dd a1bd bb6a 9bbc 1ca3 373c 78a2 953d
000000e0: e024 3a3d d16c a03d 2c33 95bd 20ca 0a3d
000000f0: 89be 82bd 1b7e 553d 7d79 a03c bffa 4cbd
00000100: 1c29 833d c556 a5bd 8aa3 07bd 8836 833d
00000110: 8743 a2bd fae7 acbd 1f4c 833c 396d b2bd
00000120: 498a 43bd c174 36bd 7cd2 eebc 8fde 2d3d
00000130: 80d4 95bc 6fcf 40bd b8be d73c 002f a53d
00000140: dcc6 273c 801b a2bc 28ef 9cbb 3c9e 843d
00000150: fe22 e13c ddb9 9d3d 8123 6b3d 9fe0 833d
00000160: 77f1 ea3c 53b1 a5bd beda 173c 1a70 69bd
00000170: 1769 2bbd 9e85 873d 0542 08bc 9532 a4bc
00000180: b124 073d 48ed 1bbd e96d 24bd 1642 193d
00000190: 5117 c1bc c1bc b3bd 9c90 963d 08ec 90bd
000001a0: 0209 953b 6ea2 cf3c 9512 9cbd a34b 82bd
000001b0: 661a aebd 2d68 113d 39d7 84bd 9707 5d3d
000001c0: d3e1 83bd 177b 203d a969 2a3c 3672 63bd
000001d0: 82a5 e7bb 2471 85bd 3f32 85bd 54cf fabb
000001e0: f3a8 8abd 699e abbd 08ef a8bd 2d9d e3bc
000001f0: d846 81bd 5ce3 efbc 9c86 343d f51a 853d
00000200: d67c 8d3c 4e19 5e3d 14dc 87bd 7a2e aabd
00000210: 7b2e 46bd c3cc 763d 4620 7d3d 798e 393d
00000220: 4ab2 7fba ed39 afbd 35f8 2ebd c8cb e8bd
00000230: 8719 0e3d deca 1bbd d0fd 0abd 7a1a a33c
00000240: 2de6 283d f30b b63c 038e 433d 6444 f43c
00000250: d7c4 f73c 9880 893c ad60 babd 2669 18bd
00000260: 4e6b 37bd 8b25 5f3d 7bbf 46bd c7fe f83c
00000270: 7330 abbc 941d 903d a216 b83b 12e0 4e3c
00000280: 084c cdbc 560a 583d b61e b6bd ceb8 21bd
00000290: 43fc 283b 7969 d7bd 01e1 8cbc 1de7 13bd
000002a0: 27e7 7bbc d5c5 853d 624e a8bd 483d abbd
000002b0: 0cba dfbd 5cfd c7bc c25c 47bc 084e 1f3c
000002c0: c7fd 843d fa53 70bd d093 12bc 22b1 fc3c
000002d0: ccb6 0fbd 862f 89bd cfa3 783c d849 3cbd
000002e0: 4bd9 c0bc ef43 a4bd dfcc 43bd 2f33 a73d
000002f0: 7454 b33d 181b 6f3c 637b 3ebd a97f 733a
00000300: 2869 81bc 1c50 79bd 8d80 b73b 0cce 13bd
00000310: 08d8 08bd 22dd 923c 227c 76bc 884f 79bd
00000320: 8d71 6d3c b56b 23bd 0ea8 49bc 2a50 033d
00000330: d4e6 673c bf2a 0fbc 6d05 aa3b a628 a9bd
00000340: b18f debd 51c9 d8bd e377 85bd f42f 2a3d
00000350: e628 4dbd 7e99 903d ce27 7b39 34ff 3cbd
00000360: c5b0 c8bd 917c dfbd 1b34 86bd ddb1 883d
00000370: b96c e9bd 21c6 b4bc 0c39 88bc 00fb c6bc
00000380: 80ed 7a3d 7202 bf3c 8a65 2c3c 95ec 0fbc
00000390: 336a 85bd 4971 8c3b 35cf 923d 8b35 653d
000003a0: a586 88bb 4189 d1bc 1239 c73c 0a5c f73c
000003b0: 21e3 e5bd 7f57 3f3d 7fbf 05bd 7388 7bbb
000003c0: bf0f a4bd dd77 9c3d 0a03 8a3d a9ef a7bc
000003d0: ae9a 15bd f8ab 6a3d 7c75 88bc 3e62 a43c
000003e0: faad 293d d6fe b5bc fcef 11bd be7e d8bd
000003f0: 01aa 243d e2a8 663d fdbe 9bbd 609b a1bd

layers.4.bias f4 [256]
-0.00628557 0.015787749 0.014579572 -0.18648656 -0.029587379 0.05241649 -0.0092910025 -0.03536195
-0.05015513 0.13429809 0.001855357 -0.008908181 -0.06917009 0.33409932 0.16852854 0.02880532
0.04717104 0.09336112 -0.01180329 0.4126364 -0.07077821 0.0141096 0.052820098 -0.018519167
0.006648867 -0.10462541 -0.0361029 -0.029313736 0.0002639118 -0.014669136 -0.06373027 -0.06506455
0.3308347 -0.086742155 -0.09457397 -0.064044625 -0.061096426 0.4096705 0.113189235 -0.06390535
0.13632551 0.01475471 -0.2261047 -0.072867185 -0.01954096 -0.007236741 -0.081283666 -0.25348097
-0.46130446 0.1953591 0.46486786 -0.024875568 -0.014130697 -0.008930723 -0.04351315 -0.06235395
0.48669824 0.17908548 -0.058771525 -0.03316604 -0.037721228 0.02120893 0.018394465 0.18011092
-0.06556959 0.14488053 -0.0641196 0.00010172043 0.009311619 -0.08776998 0.026588008 0.06534655
-0.1197761 0.028410397 -0.055308644 -0.025000963 -0.00082773407 -0.022629797 0.022574052 -0.04576099
0.058945686 -0.065048546 -0.08471651 -0.07711886 -0.048538424 0.038161546 0.25360382 -0.01711475
0.16409338 -0.011026551 -0.07513617 0.37523842 0.1041141 -0.08178918 0.50395054 -0.039516695
0.35601437 -0.005576758 -0.073185444 -0.26414743 -0.035142463 0.37309355 -0.028159827 -0.11808059
-0.03439303 0.14870772 0.39449507 0.20196864 0.028479425 0.24273705 -0.009841679 0.028860085
-0.25729683 -0.068243854 -0.025499858 0.37414628 0.15455762 -0.023047782 -0.008544454 0.02864534
-0.014228894 0.12454362 -0.061752807 -0.022103904 -0.08871548 -0.0090917535 -0.072741635 0.008601964
0.32068196 -0.09610239 -0.079243034 -0.09079637 0.024701875 -0.030148758 2.9775421e-05 -0.0046564233
-0.058925096 -0.046284165 0.03040005 0.005747924 -0.017364413 -0.008338332 -0.09450089 0.087641016
0.030425053 -0.0058636153 -0.011067059 0.015840933 -0.069109336 -0.02163419 -0.09129288 -0.04665172
0.0024531947 -0.09640051 0.005099413 -0.03107205 -0.014063741 0.05252703 0.0120553365 0.019284727
-0.022276431 -0.010105557 -0.075768024 -0.021310126 -0.35316235 -0.36774176 -0.045382798 0.14472947
0.4287899 0.029428877 -0.15925454 0.22990416 0.37512466 -0.13768777 -0.037299413 0.042461608
0.5560548 -0.07905555 -0.10513162 -0.07972774 0.12473444 0.038735405 -0.06657495 -0.0031856273
0.3173113 -0.007014453 -0.008595053 -0.028628843 -0.04905358 -0.014803324 -0.039750293 0.021515554
-0.05750738 -0.040241033 -0.088206165 0.009713723 -0.02747026 0.094410606 0.0494007 0.50042987
-0.031772863 -0.027662704 0.25795034 -0.018006729 0.12738037 0.0114038745 -0.0065317103 0.021155717
-0.031362765 -0.013429713 0.15764925 0.20761766 -0.05651774 -0.015202508 0.27079943 -0.15525283
-0.06056524 -0.21288262 -0.08171226 -0.083899625 -0.023750165 -0.13526054 -0.10872079 -0.03459938
-0.09103556 -0.012477177 -0.0777178 -0.0001441561 -0.021365566 -0.06706948 0.26395434 -0.043132693
0.061800875 -0.19577248 0.48236126 0.017737988 -0.09444744 -0.059463184 -0.017040309 0.22177802
-0.061806623 -0.6643349 -0.054077722 -0.5007197 0.040614545 -0.072556295 0.024683554 0.104533404
0.02916109 0.025076503 -0.034979057 -0.01895565 -0.019389084 -0.06781838 -0.02613574 0.20481579
00000000: 2ff7 cdbb 4f55 813c 28df 6e3c 55f6 3ebe
00000010: 3b61 f2bc acb2 563d 4a39 18bc b1d7 10bd
00000020: 776f 4dbd 7085 093e 732f f33a 9ff3 11bc
00000030: 0ca9 8dbd 110f ab3e bf92 2c3e 22f9 eb3c
00000040: 6c36 413d 1d34 bf3d 9662 41bc 1445 d33e
00000050: 2bf4 90bd f42b 673c e359 583d 82b5 97bc
00000060: bdde d93b d945 d6bd a2e0 13bd 5c23 f0bc
00000070: a45d 8a39 d156 70bc 0485 82bd 9040 85bd
00000080: 2a63 a93e dfa5 b1bd ffaf c1bd d429 83bd
00000090: 3f40 7abd 55c0 d13e c2cf e73d cfe0 82bd
000000a0: ea98 0b3e bdbd 713c fe87 67be 643b 95bd
000000b0: 5d14 a0bc 2f22 edbb 0d78 a6bd 42c8 81be
000000c0: 1930 ecbe 370c 483e 2903 ee3e d9c7 cbbc
000000d0: 7084 67bc 2b52 12bc d83a 32bd db66 7fbd
000000e0: 8330 f93e 2f62 373e 69ba 70bd 1dd9 07bd
000000f0: 9381 1abd 5abe ad3c fdaf 963c ff6e 383e
00000100: 5949 86bd 905b 143e 2351 83bd bd52 d538
00000110: c38f 183c bfc0 b3bd 18cf d93c 69d4 853d
00000120: 2c4d f5bd ecbc e83c 518b 62bd d2ce ccbc
00000130: 4bfc 58ba 2062 b9bc 38ed b83c e06f 3bbd
00000140: 0871 713d 2c38 85bd d97f adbd 7ef0 9dbd
00000150: 3ad0 46bd 484f 1c3d 5cd8 813e 3b34 8cbc
00000160: 1808 283e b5a8 34bc fee0 99bd 401f c03e
00000170: c639 d53d 1681 a7bd e702 013f 42dc 21bd
00000180: 8447 b63e 3dbd b6bb 40e2 95bd 553e 87be
00000190: 8bf1 0fbd 1e06 bf3e 70af e6bc 3dd4 f1bd
000001a0: b5df 0cbd d646 183e 42fb c93e ded0 4e3e
000001b0: af4d e93c 1090 783e fe3e 21bc fc6b ec3c
000001c0: 69bc 83be 6fc3 8bbd 14e5 d0bc 1a90 bf3e
000001d0: 5a44 1e3e b4ce bcbc 0afe 0bbc a2a9 ea3c
000001e0: 4f20 69bc ba10 ff3d 83f0 7cbd 3f13 b5bc
000001f0: 76b0 b5bd 94f5 14bc 91f9 94bd 41ef 0c3c
00000200: 6d30 a43e 54d1 c4bd 2c4a a2bd 72f3 b9bd
00000210: 965b ca3c 87fa f6bc 3bc6 f937 e994 98bb
00000220: 715b 71bd 7794 3dbd 8709 f93c 1559 bc3b
00000230: d03f 8ebc 809d 08bc af89 c1bd 227d b33d
00000240: f63d f93c 9223 c0bb 9c52 35bc d8c4 813c
00000250: 3289 8dbd 2f3a b1bc c3f7 babd e015 3fbd
00000260: c7c5 203b a16d c5bd fa18 a73b d08a febc
00000270: 9b6b 66bc 9526 573d bf83 453c 01fb 9d3c
00000280: 107d b6bc c791 25bc 442c 9bbd 9392 aebc
00000290: b2d1 b4be a648 bcbe 50e3 39bd f633 143e
000002a0: 5a8a db3e d414 f13c 9f13 23be ff6b 6b3e
000002b0: 5710 c03e 06fe 0cbe 45c7 18bd 39ec 2d3d
000002c0: 9b59 0e3f e0e7 a1bd 3f4f d7bd 4c48 a3bd
000002d0: c574 ff3d 04a9 1e3d 7358 88bd f5c5 50bb
000002e0: a076 a23e 7fd9 e5bb 44d2 0cbc 0987 eabc
000002f0: 68ec 48bd a489 72bc 34d1 22bd 6341 b03c
00000300: dc8c 6bbd c8d3 24bd 6fa5 b4bd 4f26 1f3c
00000310: 5009 e1bc 595a c13d 6358 4a3d 2c1c 003f
00000320: 4324 02bd e59c e2bc 1112 843e d982 93bc
00000330: 0070 023e 51d7 3a3c f507 d6bb c14e ad3c
00000340: 3e76 00bd 4d08 5cbc ce6e 213e b999 543e
00000350: 257f 67bd f113 79bc 39a6 8a3e 99fa 1ebe
00000360: 4213 78bd e7fd 59be c258 a7bd 91d3 abbd
00000370: b58f c2bc bd81 0abe 01a9 debd 14b8 0dbd
00000380: da70 babd 136d 4cbc 832a 9fbd 9c28 17b9
00000390: d706 afbc b95b 89bd 0625 873e e8ab 30bd
000003a0: ea22 7d3d 9578 48be 0ef8 f63e 424f 913c
000003b0: a96d c1bd ab8f 73bd 1e98 8bbc c719 633e
000003c0: f128 7dbd da11 2abf 9a80 5dbd 2b2f 00bf
000003d0: 705b 263d 6598 94bd 2a35 ca3c 9c15 d63d
000003e0: 3de3 ee3c 3d6d cd3c 3346 0fbd e148 9bbc
000003f0: dbd5 9ebc 5de4 8abd 9f1a d6bc 3bbb 513e

layers.6.weight f4 [344, 256]
-0.019661479 0.05311726 0.03395994 0.04417868 0.0558161 0.022890761 -0.0024532527 -0.04852078
0.048496343 -0.0103060305 -0.030302346 0.038676336 0.023741499 -0.028143957 0.05681727 0.017982043
-0.010620974 -0.013976626 -0.042352825 -0.0020145923 -0.013955675 -0.019659542 0.0050537363 0.026009865
-0.009078294 -0.050000273 0.014854439 -0.0038935766 0.060652457 0.029983692 0.059255794 -0.0341755
0.017614402 -0.014700308 0.05459016 -0.04261063 -0.023306534 0.024309494 0.046896495 0.030991033
-0.01874283 -0.0017773136 -0.0022835508 -0.023057751 0.047730766 -0.019090094 -0.058409445 -0.023106113
-0.018057749 -0.058981866 -0.029550001 0.05394899 0.012910694 0.06158071 0.04276143 -0.0472799
0.061770402 0.03441014 0.039153747 0.038453177 -0.011430994 -0.029525533 -0.012727872 0.00575199
0.049924575 -0.01372461 -0.0019079521 0.058594294 0.045682922 -0.0587105 -0.041337132 0.039561965
0.006322585 -0.043115057 0.0007321164 0.023420736 -0.01933264 0.037485488 -0.055620305 -0.052608386
0.015771158 0.045676917 0.011544116 -0.0019473955 -0.022407942 -0.023001969 -0.02250567 0.03275215
0.0370277 -0.050680928 0.04584773 0.04910659 -0.032907963 0.0041560233 -0.013227947 -0.040785454
0.047168948 -0.011979394 0.018783547 -0.02165012 -0.001207009 0.048307754 0.011546306 0.054595403
0.025533803 0.01883895 -0.045731872 -0.021470003 0.048308298 0.054890454 -0.031131752 -0.04476276
0.033486977 -0.0288423 -0.052031785 -0.02282624 -0.03989108 -0.012871131 0.033947766 -0.021465272
0.060253717 0.052482642 0.051548176 -0.046837516 0.024549954 0.042525463 0.0009857491 -0.04882916
-0.018697038 0.058334984 0.00043283403 0.0008273423 -0.045668907 -0.03995838 0.04621516 -0.013284296
-0.0275888 0.0111381635 -0.0270122 -0.03789621 0.003754951 0.024147809 -0.03888236 -0.03754983
-0.0032852814 -0.037273943 -0.042788133 -0.022589408 -0.010633238 -0.056312524 -0.029746898 -0.009358741
-0.022832066 0.018456832 0.0061008483 -0.018496573 0.030974448 -0.020957164 -0.009925187 -0.062400706
0.051095553 0.029703222 -0.029443234 0.05515351 -0.040595792 -0.03156565 -0.021537244 0.053233683
0.036843352 0.014413409 0.045469753 0.021158941 0.04617653 0.016245492 -0.033847667 -0.019752003
0.030086994 -0.0025125146 0.04317183 0.048902147 0.017322555 0.04231447 -0.0048264936 0.034352332
-0.059799604 -0.0254962 -0.0015468597 -0.05074311 -0.023702763 -0.045866735 0.030386925 0.05326449
0.02547273 -0.05489005 -0.016825967 0.015816212 0.037218638 0.020365 0.038673565 -0.0607747
-0.04628048 0.017276973 -0.0155102685 -0.022377558 0.021917649 0.061549477 0.029516578 0.036079906
-0.06216407 -0.04869912 0.023084529 0.0063269064 -0.028141327 -0.047849976 0.030431278 -0.05367577
0.022099137 -0.028637245 0.052623846 -0.059691064 -0.017018586 -0.046859734 -0.017249554 0.016391836
-0.012517676 0.012254372 -0.016838774 0.060577333 0.038999856 -0.007974274 -0.050373316 -0.052334435
0.04644963 0.054083236 -0.033873446 -0.03837505 -0.021593876 0.019362807 -0.025385328 0.044288486
-0.033775732 -0.009485766 -0.013917483 -0.045702606 0.053900175 0.02236949 0.03509534 -0.053864248
-0.060621463 -0.045212917 -0.022134036 -0.023247518 0.03294591 -0.018733487 -0.0077543035 0.01764863
00000000: 1c11 a1bc 7c91 593d 9419 0b3d b4f4 343d
00000010: 6c9f 643d 6885 bb3c c0c6 20bb babd 46bd
00000020: 1aa4 463d a0da 28bc a03c f8bc 146b 1e3d
00000030: 887d c23c 288e e6bc 3ab9 683d 144f 933c
00000040: 9803 2ebc 38fe 64bc 287a 2dbd 4007 04bb
00000050: 58a6 64bc 0c0d a1bc d099 a53b a412 d53c
00000060: 20bd 14bc 16cd 4cbd 0860 733c 602b 7fbb
00000070: b66e 783d 5ca0 f53c 34b6 723d 9cfb 0bbd
00000080: 144c 903c 90d9 70bc ee99 5f3d 7c88 2ebd
00000090: 58ed bebc b424 c73c 8a16 403d e8e0 fd3c
000000a0: 908a 99bc c0f4 e8ba a0a7 15bb 9ce3 bcbc
000000b0: 5681 433d d462 9cbc be3e 6fbd 0849 bdbc
000000c0: d8ed 93bc f896 71bd d812 f2bc 9ef9 5c3d
000000d0: 6087 533c 0e3c 7c3d 9c26 2f3d 92a8 41bd
000000e0: f602 7d3d a6f1 0c3d ae5f 203d 1481 1d3d
000000f0: 1049 3bbc 88df f1bc 9088 50bc 307b bc3b
00000100: b67d 4c3d 30dd 60bc 4014 faba 9200 703d
00000110: 041e 3b3d 6c7a 70bd 2051 29bd ba0b 223d
00000120: b02d cf3b 6a99 30bd 80eb 3f3a d8dc bf3c
00000130: 7c5f 9ebc 628a 193d 1ed2 63bd e47b 57bd
00000140: 8432 813c b817 3b3d 8823 3d3c c03f ffba
00000150: dc90 b7bc a06e bcbc d05d b8bc 1e27 063d
00000160: 5caa 173d ce96 4fbd d4ca 3b3d fe23 493d
00000170: 80ca 06bd 402f 883b 08ba 58bc a60e 27bd
00000180: 3a34 413d 3845 44bc f4df 993c 985b b1bc
00000190: 8034 9eba 5ade 453d b82c 3d3c 6e9f 5f3d
000001a0: 442c d13c 2454 9a3c 5851 3bbd dce1 afbc
000001b0: ecde 453d d0d4 603d 0408 ffbc 2859 37bd
000001c0: a429 093d b046 ecbc 481f 55bd 18fe babc
000001d0: d464 23bd 70e1 52bc d00c 0b3d f0d7 afbc
000001e0: 9acc 763d 0af8 563d 2e24 533d b2d8 3fbd
000001f0: fc1c c93c 2e2f 2e3d 4034 813a 1601 48bd
00000200: 882a 99bc aaf0 6e3d 00ee e239 00e2 583a
00000210: 520f 3bbd 66ab 23bd 1c4c 3d3d 60a6 59bc
00000220: e801 e2bc d87c 363c b048 ddbc 0e39 1bbd
00000230: a015 763b a0d1 c53c 1c43 1fbd dacd 19bd
00000240: e04d 57bb 90ac 18bd 9c42 2fbd 6c0d b9bc
00000250: 0837 2ebc f6a7 66bd c4af f3bc 6855 19bc
00000260: 500a bbbc c832 973c a0e9 c73b 2086 97bc
00000270: 20be fd3c 5cae abbc 409d 22bc e297 7fbd
00000280: 9249 513d 2c54 f33c f032 f1bc a6e8 613d
00000290: c647 26bd fc4a 01bd e06e b0bc 900b 5a3d
000002a0: 0ee9 163d 3826 6c3c 7e3e 3a3d 8455 ad3c
000002b0: 9a23 3d3d 4415 853c daa3 0abd f4ce a1bc
000002c0: 0079 f63c 00a9 24bb f2d4 303d 9e4d 483d
000002d0: 08e8 8d3c f051 2d3d 9027 9ebb 08b5 0c3d
000002e0: 6ef0 74bd 68dd d0bc 00c0 caba 02d8 4fbd
000002f0: 4c2c c2bc c2de 3bbd 00ee f83c de2b 5a3d
00000300: 30ac d03c 64d4 60bd 9cd6 89bc 0091 813c
00000310: 9272 183d 80d4 a63c 2c68 1e3d e4ee 78bd
00000320: 9a90 3dbd 7088 8d3c c81e 7ebc 2451 b7bc
00000330: a48c b33c 4e1b 7c3d c0cc f13c 86c8 133d
00000340: c09f 7ebd ba78 47bd c41b bd3c f051 cf3b
00000350: a488 e6bc 56fe 43bd 044b f93c 20db 5bbd
00000360: 4009 b53c a898 eabc 1a8c 573d 9e7e 74bd
00000370: 906a 8bbc feef 3fbd f04e 8dbc 2c48 863c
00000380: f016 4dbc 90c6 483c 78f1 89bc f01f 783d
00000390: 50be 1f3d 88a6 02bc 4054 4ebd a25c 56bd
000003a0: f841 3e3d 6286 5d3d e2be 0abd 282f 1dbd
000003b0: a4e5 b0bc c09e 9e3c e4f4 cfbc d867 353d
000003c0: 6c58 0abd 306a 1bbc 2806 64bc a832 3bbd
000003d0: 6ec6 5c3d 3840 b73c 22c0 0f3d c2a0 5cbd
000003e0: 364e 78bd 2e31 39bd 7052 b5bc 9471 bebc
000003f0: 4af2 063d f876 99bc d017 febb dc93 903c

layers.6.bias f4 [344]
-0.009994194 0.037206262 -0.0549723 0.025916718 1.3434912 -3.7438025 -0.042140342 -0.018601358
-0.030644469 0.03712464 -0.8618947 3.979392 0.017067306 3.4188254 -0.018155158 0.0089307055
-0.007815033 -0.019895852 0.02977644 3.3976574 3.8725305 1.390953 0.009066708 -0.024396695
3.9205813 3.8177662 -0.0056629404 -4.014238 -1.6700774 -0.023962628 -0.028159022 -0.04160732
-0.051778942 -0.031067677 -0.025663175 -0.048609078 4.122893 -0.002110362 -3.2774048 -0.08967145
-0.008134559 -0.017704636 0.041372888 0.006316118 1.9858017 -0.71554816 0.022826053 -0.042890392
0.02454102 -0.013772726 -3.643052 0.056669153 0.006484419 -0.026448078 3.4580674 0.31782776
0.3164262 -0.2115789 -0.7292845 2.8212461 0.2829501 -0.0071327947 0.58640206 0.016498448
-3.8370655 -0.07329085 0.036673177 3.445642 0.2258725 -1.1410229 0.1477835 0.082552694
0.06925162 -0.8007894 0.09783741 1.3778583 0.6441733 1.1824138 0.12923573 0.3278549
-0.82393855 -0.665264 -1.7269208 -0.30358154 0.46138301 -0.083184384 -0.012922965 3.3977969
3.5567255 0.62453264 -0.3906088 0.73504525 -0.09435963 -0.3723913 0.15065649 -0.02895407
3.308936 0.07820111 -0.68326277 -0.16078515 3.006275 0.649864 0.0422523 1.601336
0.0032697 -1.2739639 -0.6301031 0.18450886 0.62820965 0.7592909 0.74688673 3.6454475
1.925139 1.4585248 1.2658979 0.9789313 3.5538063 2.2288833 1.048818 1.0696499
0.76983553 1.1775349 1.278042 1.0849463 3.7857323 1.416962 1.2030604 0.89958644
0.7739539 0.887503 1.4093432 1.2911044 3.7639937 0.6921404 1.0034729 0.774134
0.68413013 0.7515356 0.75467676 1.0188226 1.2401404 1.7654114 1.5039814 1.43394
3.6055768 0.4582671 0.6226653 0.41116634 0.31915823 0.28821707 0.7728392 0.46466628
0.27791202 0.39408022 0.44192982 0.543985 0.67075694 0.45687047 0.27092302 0.28327712
0.3072983 0.4266316 0.45550126 0.41734982 0.4484414 0.34787592 3.1425533 1.6368796
1.3525747 1.3079463 0.70728654 0.81672406 0.61534137 3.7472343 1.4343914 0.6536837
1.2958008 0.5711465 0.57969993 0.86243653 0.6206303 0.31716123 0.34086028 0.12761068
0.7286018 0.57479286 0.6900808 1.7105381 0.4001392 0.68102515 0.7932465 1.0717458
1.5270715 1.1925381 1.8869495 1.4254901 3.758048 1.0753766 1.246428 1.478337
0.94629216 0.78214025 0.44160593 0.6226165 0.7936552 1.1216967 2.0446103 3.5248692
1.1081532 1.3120326 0.92437154 0.8082886 0.75034666 0.6692198 0.5834311 0.5705802
0.48507345 0.39843395 0.4571394 0.19314805 1.5688094 0.83735216 0.84039927 0.3869342
0.7144536 0.11849395 -0.15619864 -0.15815887 -0.16483957 -0.113437556 -0.10945289 -0.12985449
-0.15493734 -0.04586533 0.039193723 0.14401725 -0.13814828 -0.15597057 -0.14554325 -0.16596124
-0.17845616 -0.16127516 -0.15364623 -0.17780791 -0.1759388 -0.18064485 -0.17646281 -0.15528616
-0.12506133 -0.13204363 -0.056661904 0.024247825 -0.1513768 -0.16453263 -0.14894329 -0.07880718
00000000: b0be 23bc 9865 183d a22a 61bd 4c4f d43c
00000010: 85f7 ab3f 769a 6fc0 5a9b 2cbd e061 98bc
00000020: 1c0a fbbc 0210 183d 22a5 5cbf 5cae 7e40
00000030: bcd0 8b3c 09ce 5a40 20ba 94bc 1852 123c
00000040: a00a 00bc a0fc a2bc b8ed f33c 3873 5940
00000050: 8ad7 7740 bf0a b23f 888c 143c 94db c7bc
00000060: ceea 7a40 4856 7440 3090 b9bb a374 80c0
00000070: 19c5 d5bf 464d c4bc c0ad e6bc 706c 2abd
00000080: 2816 54bd a481 febc 943b d2bc 501a 47bd
00000090: bdee 8340 004e 0abb 00c1 51c0 aaa5 b7bd
000000a0: d046 05bc 5009 91bc 9e76 293d 70f7 ce3b
000000b0: c02e fe3f 2a2e 37bf b4fd ba3c d6ad 2fbd
000000c0: 400a c93c 00a7 61bc c427 69c0 ea1d 683d
000000d0: 407b d43b a4a9 d8bc fa50 5d40 52ba a23e
000000e0: 9d02 a23e 24a8 58be 64b2 3abf 4c8f 3440
000000f0: d6de 903e 38ba e9bb 721e 163f c127 873c
00000100: 7b92 75c0 8319 96bd 9d36 163d 6685 5c40
00000110: 1f4b 673e 0a0d 92bf 8f54 173e 6311 a93d
00000120: cbd3 8d3d 8900 4dbf fb5e c83d a95d b03f
00000130: 8be8 243f 5659 973f 5f56 043e 99dc a73e
00000140: a3ed 52bf be4e 2abf be0b ddbf 0a6f 9bbe
00000150: 653a ec3e 935c aabd d8ba 53bc 8175 5940
00000160: 64a1 6340 5fe1 1f3f e0fd c7be ed2b 3c3f
00000170: 9f3f c1bd 13aa bebe b245 1a3e 1631 edbc
00000180: 9cc5 5340 e727 a03d 4fea 2ebf dda4 24be
00000190: cf66 4040 7d5d 263f bf10 2d3d 94f8 cc3f
000001a0: 7748 563b 4011 a3bf 704e 21bf e4ef 3c3e
000001b0: 59d2 203f e360 423f f833 3f3f 034f 6940
000001c0: f46a f63f f1b0 ba3f f108 a23f 3e9b 7a3f
000001d0: 9071 6340 06a6 0e40 ab3f 863f 4aea 883f
000001e0: f113 453f 77b9 963f e196 a33f 85df 8a3f
000001f0: 7049 7240 035f b53f e2fd 993f 4c4b 663f
00000200: d821 463f 6633 633f 5c65 b43f e942 a53f
00000210: 46e5 7040 1d30 313f cd71 803f a52d 463f
00000220: 2723 2f3f a364 403f 7f32 413f c768 823f
00000230: ecbc 9e3f 00f9 e13f 7682 c03f 598b b73f
00000240: c5c1 6640 fca1 ea3e fe66 1f3f 6584 d23e
00000250: b568 a33e 3091 933e cad8 453f bde8 ed3e
00000260: 7c4a 8e3e e2c4 c93e a044 e23e 9a42 0b3f
00000270: bab6 2b3f edea e93e 6cb6 8a3e b309 913e
00000280: 3456 9d3e 756f da3e 7637 e93e e0ae d53e
00000290: 1c9a e53e cb1c b23e 981f 4940 4585 d13f
000002a0: 2b21 ad3f c96a a73f bb10 353f d414 513f
000002b0: 0387 1d3f b0d2 6f40 239a b73f d157 273f
000002c0: cddc a53f a836 123f 3767 143f a4c8 5c3f
000002d0: a1e1 1e3f f562 a23e 3d85 ae3e 60ac 023e
000002e0: a685 3a3f a025 133f 23a9 303f eaf2 da3f
000002f0: 0cdf cc3e aa57 2e3f 3412 4b3f f72e 893f
00000300: 1477 c33f 17a5 983f 9087 f13f 7676 b63f
00000310: dc83 7040 f1a5 893f f48a 9f3f 263a bd3f
00000320: 3440 723f 583a 483f 2c1a e23e cc63 1f3f
00000330: fd2c 4b3f c293 8f3f e5da 0240 7597 6140
00000340: f7d7 8d3f aff0 a73f 9da3 6c3f 00ec 4e3f
00000350: b816 403f fd51 2b3f be5b 153f 8b11 123f
00000360: 8c5b f83e 89ff cb3e 2d0e ea3e 9ac8 453e
00000370: bfce c83f b65c 563f 6824 573f 3d1c c63e
00000380: 6ee6 363f f5ac f23d 89f2 1fbe 66f4 21be
00000390: b4cb 28be f351 e8bd d628 e0bd 93f8 04be
000003a0: e5a7 1ebe 49dd 3bbd 9989 203d 4279 133e
000003b0: be76 0dbe c0b6 1fbe 4a09 15be bef1 29be
000003c0: 36bd 36be 5125 25be 7055 1dbe 4713 36be
000003d0: 4d29 34be f7fa 38be abb2 34be 5603 1fbe
000003e0: 1410 00be 7236 07be 5016 68bd 60a3 c63c
000003f0: 8502 1bbe 3e7b 28be 9784 18be a965 a1bd

layers.7.lower_bound f4 [226]
0.0 0.0 0.0 0.0 0.0 0.0 0.0 0.0
0.0 0.0 0.0 0.0 0.0 0.0 0.0 0.0
0.0 0.0 0.0 0.0 0.0 0.0 0.0 0.0
0.0 0.0 0.0 0.0 0.0 0.0 0.0 0.0
0.0 0.0 0.0 0.0 0.0 0.0 0.0 0.0
0.0 0.0 0.0 0.0 0.0 0.0 0.0 0.0
0.0 0.0 0.0 0.0 0.0 0.0 -0.05 -3.0
-0.13 -3.0 -1.47 -0.35 -0.1 -0.16 -0.08 -3.0
-0.47 -2.43 -3.0 -0.09 -0.14 -0.08 -0.08 -3.0
-3.0 -0.1 -0.85 -0.27 -0.08 -0.08 -0.6 -0.98
-0.2 -0.67 -0.67 -3.0 -0.1 -1.0 -1.0 -0.06
-0.08 -0.2 -1.65 -0.08 -0.05 -2.1 -3.0 -1.0
-0.03 -1.0 -0.5 -0.15 -0.08 -0.08 -2.0 -0.08
-0.4 -1.0 -1.0 -10.0 0.94 0.94 0.94 0.94
0.94 0.94 0.94 0.94 0.94 0.94 0.94 0.94
0.94 0.94 0.94 0.94 0.94 0.94 0.94 0.94
0.94 0.94 0.94 0.94 0.94 0.94 0.94 0.94
0.94 0.94 0.94 0.94 0.94 0.94 0.94 0.94
0.94 0.94 0.94 0.94 0.94 0.94 0.94 0.94
0.94 0.94 0.94 0.94 0.94 0.94 0.94 0.94
0.94 0.94 0.94 0.94 0.94 0.94 0.94 0.94
0.94 0.94 0.94 0.94 0.94 0.94 0.94 0.94
0.94 0.94 0.94 0.94 0.94 0.94 0.94 0.94
0.94 0.94 0.94 0.94 0.94 0.94 0.94 0.94
0.94 0.94 0.94 0.94 0.94 0.94 0.94 0.94
0.94 0.94 0.94 0.94 0.94 0.94 0.94 0.94
0.94 0.94 0.94 0.94 0.94 0.94 0.94 0.94
0.94 0.94 0.94 0.94 0.94 0.94 0.94 0.94
0.94 0.94
00000000: 0000 0000 0000 0000 0000 0000 0000 0000
00000010: 0000 0000 0000 0000 0000 0000 0000 0000
00000020: 0000 0000 0000 0000 0000 0000 0000 0000
00000030: 0000 0000 0000 0000 0000 0000 0000 0000
00000040: 0000 0000 0000 0000 0000 0000 0000 0000
00000050: 0000 0000 0000 0000 0000 0000 0000 0000
00000060: 0000 0000 0000 0000 0000 0000 0000 0000
00000070: 0000 0000 0000 0000 0000 0000 0000 0000
00000080: 0000 0000 0000 0000 0000 0000 0000 0000
00000090: 0000 0000 0000 0000 0000 0000 0000 0000
000000a0: 0000 0000 0000 0000 0000 0000 0000 0000
000000b0: 0000 0000 0000 0000 0000 0000 0000 0000
000000c0: 0000 0000 0000 0000 0000 0000 0000 0000
000000d0: 0000 0000 0000 0000 cdcc 4cbd 0000 40c0
000000e0: b81e 05be 0000 40c0 f628 bcbf 3333 b3be
000000f0: cdcc ccbd 0ad7 23be 0ad7 a3bd 0000 40c0
00000100: d7a3 f0be 1f85 1bc0 0000 40c0 ec51 b8bd
00000110: 295c 0fbe 0ad7 a3bd 0ad7 a3bd 0000 40c0
00000120: 0000 40c0 cdcc ccbd 9a99 59bf 713d 8abe
00000130: 0ad7 a3bd 0ad7 a3bd 9a99 19bf 48e1 7abf
00000140: cdcc 4cbe 1f85 2bbf 1f85 2bbf 0000 40c0
00000150: cdcc ccbd 0000 80bf 0000 80bf 8fc2 75bd
00000160: 0ad7 a3bd cdcc 4cbe 3333 d3bf 0ad7 a3bd
00000170: cdcc 4cbd 6666 06c0 0000 40c0 0000 80bf
00000180: 8fc2 f5bc 0000 80bf 0000 00bf 9a99 19be
00000190: 0ad7 a3bd 0ad7 a3bd 0000 00c0 0ad7 a3bd
000001a0: cdcc ccbe 0000 80bf 0000 80bf 0000 20c1
000001b0: d7a3 703f d7a3 703f d7a3 703f d7a3 703f
000001c0: d7a3 703f d7a3 703f d7a3 703f d7a3 703f
000001d0: d7a3 703f d7a3 703f d7a3 703f d7a3 703f
000001e0: d7a3 703f d7a3 703f d7a3 703f d7a3 703f
000001f0: d7a3 703f d7a3 703f d7a3 703f d7a3 703f
00000200: d7a3 703f d7a3 703f d7a3 703f d7a3 703f
00000210: d7a3 703f d7a3 703f d7a3 703f d7a3 703f
00000220: d7a3 703f d7a3 703f d7a3 703f d7a3 703f
00000230: d7a3 703f d7a3 703f d7a3 703f d7a3 703f
00000240: d7a3 703f d7a3 703f d7a3 703f d7a3 703f
00000250: d7a3 703f d7a3 703f d7a3 703f d7a3 703f
00000260: d7a3 703f d7a3 703f d7a3 703f d7a3 703f
00000270: d7a3 703f d7a3 703f d7a3 703f d7a3 703f
00000280: d7a3 703f d7a3 703f d7a3 703f d7a3 703f
00000290: d7a3 703f d7a3 703f d7a3 703f d7a3 703f
000002a0: d7a3 703f d7a3 703f d7a3 703f d7a3 703f
000002b0: d7a3 703f d7a3 703f d7a3 703f d7a3 703f
000002c0: d7a3 703f d7a3 703f d7a3 703f d7a3 703f
000002d0: d7a3 703f d7a3 703f d7a3 703f d7a3 703f
000002e0: d7a3 703f d7a3 703f d7a3 703f d7a3 703f
000002f0: d7a3 703f d7a3 703f d7a3 703f d7a3 703f
00000300: d7a3 703f d7a3 703f d7a3 703f d7a3 703f
00000310: d7a3 703f d7a3 703f d7a3 703f d7a3 703f
00000320: d7a3 703f d7a3 703f d7a3 703f d7a3 703f
00000330: d7a3 703f d7a3 703f d7a3 703f d7a3 703f
00000340: d7a3 703f d7a3 703f d7a3 703f d7a3 703f
00000350: d7a3 703f d7a3 703f d7a3 703f d7a3 703f
00000360: d7a3 703f d7a3 703f d7a3 703f d7a3 703f
00000370: d7a3 703f d7a3 703f d7a3 703f d7a3 703f
00000380: d7a3 703f d7a3 703f
